checkpoint_policy_20210724.pth (torch_old, 541598 bytes, 6 tensors)

hidden1.0.weight f4 [400, 33]
000000 91 13 da 3d f9 28 1f 3d 3c 8a ab 3d 19 87 ed bd
       0.10648263 0.038857434 0.083759755 -0.115980335
000010 6a e5 5b 3d c3 df 99 be 8b 5b bb bd c0 32 72 3e
       0.053685583 -0.3005353 -0.0914832 0.23652172
000020 3a 65 e4 3d 7e 7f 0c 3e 4f ec 71 3d 92 98 c5 3d
       0.1115212 0.1372051 0.059063252 0.09648241
000030 3c 52 53 3c 11 9b 6f 3e 9f 23 e0 3d 21 70 58 be
       0.012898024 0.23398997 0.10944294 -0.21136524
000040 5b 26 2a be 7c b6 59 bd 50 5f 7d be b1 d3 33 3e
       -0.16616194 -0.053152546 -0.2474339 0.17561223
000050 e9 61 10 3e 7c 58 93 3c 92 81 29 3e 8b ac 84 bd
       0.1409985 0.017986529 0.16553333 -0.064782225
000060 f0 c5 69 bd a3 ea 13 be 55 7e 32 3d 8b 9a 54 be
       -0.057073534 -0.14444976 0.04357751 -0.20762078
000070 76 0b 1e 3e ec 86 1a be 54 24 96 bd 14 61 77 3d
       0.1543406 -0.15090531 -0.07331148 0.060395315
000080 3b 20 66 bd 4f e8 d7 3d cd 76 45 be 45 1a 63 bd
       -0.05618308 0.10542356 -0.192836 -0.055444974
000090 b6 95 50 bd 7b 1f 86 3d 26 7e e6 ba f7 6a dc bd
       -0.050924025 0.06548973 -0.0017585203 -0.107625894
0000a0 6d 00 00 be e7 73 02 bd 6e 21 24 be 91 e6 f3 bd
       -0.12500162 -0.031848814 -0.16028377 -0.119092114
0000b0 9d ba 69 be 69 27 8b 3c 0f 8e 7f be 6a 48 08 3e
       -0.22825094 0.016986566 -0.24956535 0.13308874
0000c0 a0 67 a0 be a5 3e 24 3e c8 c1 59 be f1 c4 b3 be
       -0.3132906 0.16039522 -0.21265328 -0.35111192
0000d0 10 0c 82 be 3a 5c 41 3b 17 15 da 3c 99 47 74 3b
       -0.25399828 0.0029504434 0.026621385 0.003727412
0000e0 6d e7 af bc c8 16 76 bd d8 51 71 bd 66 0d a9 3d
       -0.021472657 -0.06008032 -0.058915943 0.08254509
0000f0 18 12 65 bb ba 2d 04 3e fa 70 a2 bd 0f 3e 04 3e
       -0.0034953412 0.12908068 -0.07931705 0.12914298
000100 16 e3 1a 3e 3e 06 74 3e a3 ff 32 3e dc 41 81 bd
       0.15125689 0.23830506 0.1748033 -0.0631139
000110 d2 ea ec 3c d1 a3 cf 3d 1d ff 77 bd 59 bf b4 bd
       0.028920565 0.101386674 -0.06054603 -0.08825559
000120 26 3a 82 3d 52 7c 26 be 8a 49 0c be cf c3 40 3e
       0.06358747 -0.16258362 -0.13699928 0.18824695
000130 a2 32 d6 bb de bb b0 bd e0 36 16 be 46 f0 62 3e
       -0.0065367976 -0.08629583 -0.1466937 0.2216197
000140 15 66 87 3d 44 06 ad bd a8 cc a5 3d 04 cf 34 3e
       0.066112675 -0.08448461 0.08095676 0.17657095
000150 d3 c6 91 bd b3 4f e1 be c1 a1 1a be bd 7f 8e 3b
       -0.07118001 -0.44006118 -0.15100767 0.0043487237
000160 79 60 c1 bd 85 62 f1 3a 78 89 ee bc e3 f8 77 3d
       -0.09442229 0.0018416202 -0.029118285 0.06054009
000170 36 61 fc bc 7f 70 16 be f9 64 54 3e ae de 00 3e
       -0.030808073 -0.14691351 0.20741643 0.12584946
000180 e3 8f 65 3e a0 93 06 3c ee 47 88 bf 93 1e 43 bd
       0.2241817 0.0082139075 -1.0646951 -0.04763658
000190 88 1b 0b be 98 9b 82 bd 53 13 50 bd 28 77 cc be
       -0.13584721 -0.063773334 -0.05079968 -0.3993466
0001a0 1f 95 e3 3e 0c 94 ca 3d e9 c6 ed bd 1d 52 3e be
       0.44449708 0.09891519 -0.11610205 -0.18586011
0001b0 55 cd 85 bc ca 9c d7 bd ec fd 06 3e d0 b3 f0 bd
       -0.016333262 -0.10527952 0.13182801 -0.117530465
0001c0 ff 16 7d 3d c3 ff 30 be af bb 01 be 54 01 06 3e
       0.06178951 -0.17285065 -0.12669252 0.13086444
0001d0 18 9b 3f 3c 5c e6 38 be a3 c8 f8 3d 2d cf 05 bc
       0.011694692 -0.18056625 0.121476434 -0.00816707
0001e0 f4 03 0c 3e 87 cd 61 3e 91 81 ab 3e 1a b7 19 3e
       0.13673383 0.22051059 0.3349729 0.15011254
0001f0 84 f7 14 3e d5 07 f4 bc 90 6d ae bd 34 43 2c 3e
       0.14547545 -0.02978889 -0.08516991 0.16822511
000200 8c 8d 3f 3d c3 3c 73 bd f0 c9 c7 bc 66 c8 dd be
       0.04676585 -0.05938412 -0.024388283 -0.43316954
000210 df 87 de 3d 1b 5d c8 3d 55 b7 4a be 63 17 d9 bd
       0.10865759 0.097833835 -0.19796498 -0.10600164
000220 57 65 e5 bb ae 93 d2 3e 7e 1c 8d 3e 83 59 2b 3d
       -0.007000606 0.41128296 0.275608 0.041833412
000230 81 7d 40 3e b8 75 23 be 57 85 57 be 8a 47 43 bc
       0.18797876 -0.15962875 -0.21046959 -0.011918912
000240 37 66 dc bd e2 b5 4b bb a9 55 5c 3e cc 4e 31 3e
       -0.107616834 -0.0031083752 0.21517052 0.17315215
000250 b7 9c 32 3e ed 80 ac 3e a5 ec 8d be 97 d1 e7 bc
       0.17442594 0.33692113 -0.27719608 -0.028298182
000260 73 22 27 bd d7 18 0f 3d be 53 8b 3d 14 8e 44 be
       -0.040804338 0.0349358 0.06803082 -0.19194824
000270 25 c2 23 bd b2 92 11 be 79 f7 37 be bc 5e 3f be
       -0.039980073 -0.14216116 -0.17965497 -0.18688482
000280 7a 57 94 bd 5c 68 d9 bd 17 58 42 bd 28 6e 23 3e
       -0.07243247 -0.10615608 -0.04744729 0.1595999
000290 54 b4 06 be a3 ef 05 bd 6c 4b 33 be cd 40 63 3e
       -0.13154727 -0.03269924 -0.1750924 0.22192688
0002a0 b4 de d4 3e e2 8f a3 bd 0b 42 07 be 20 db 5f bd
       0.4157616 -0.07986428 -0.13208787 -0.054652333
0002b0 80 81 85 bd 58 18 45 3e 6a 8f 05 be 47 ce 02 3d
       -0.06518841 0.19247568 -0.1304299 0.031935003
0002c0 b9 ce 32 be bc 96 1b 3e f9 a1 66 3e fa b3 d5 bd
       -0.17461671 0.1519422 0.22522725 -0.104347184
0002d0 6e 0e 64 bc 3e c1 96 3e de bd 07 bd fd 2b 05 be
       -0.013919456 0.29444307 -0.033140056 -0.13005061
0002e0 9a 19 4d be ae d6 20 be 5f 32 8d 3d f9 22 2a be
       -0.20029297 -0.15706894 0.06894373 -0.16614904
0002f0 4e 01 66 3d fb d7 d6 3d 01 b9 61 bd 45 31 34 be
       0.056153588 0.10490414 -0.055108074 -0.1759692
000300 63 25 02 3e 08 7a 0e be d3 7a ae bd 80 a1 d5 bd
       0.12709574 -0.13913739 -0.085195206 -0.10431194
000310 bd e3 8c bd c8 dc 06 be e5 5f 89 3d 1b ec a3 bd
       -0.06879375 -0.13170159 0.067077436 -0.08004018
000320 56 8a c1 3d 0c 92 b8 3e 28 a7 30 3d fa 7d 53 3d
       0.094502136 0.36048925 0.043128163 0.051633812
000330 ca 2f ee bc b8 29 76 3e 22 f0 0c 3e 41 3e f7 3d
       -0.029075522 0.24039352 0.13763478 0.12072421
000340 2e 08 34 bd be 0a 1b 3c 28 3e c4 3d c5 dc 8e be
       -0.043953113 0.00946301 0.09582168 -0.2790281
000350 df 24 bf 3c 64 77 59 3e 5d ac c9 bd 78 a2 c9 3e
       0.023333011 0.2123695 -0.09847329 0.39381766
000360 e7 2b 50 3d 23 c6 ca bc 3d e6 db 3d 38 18 56 bc
       0.05082312 -0.024752682 0.10737274 -0.013067298
000370 86 43 c7 3d 6f 05 bc 3b 0f 75 59 3c 13 fc 63 3e
       0.09729676 0.0057379524 0.013272538 0.22264127
000380 1b 58 18 3e 13 1d 63 bd bd d9 28 bd 00 f9 c8 3c
       0.1487736 -0.05544765 -0.041223276 0.024532795
000390 4b cb 22 bd d0 fd a6 bc 4f 33 f2 3c 4f 3d d4 bd
       -0.039744657 -0.0203847 0.029565481 -0.10363256
0003a0 a9 ee c3 3c e9 8a 05 3e e1 8a 92 bc 46 e0 87 3e
       0.023917513 0.13041271 -0.017888488 0.26538295
0003b0 15 00 3f be 8a 29 a7 bd 65 7b 75 bd af d1 e9 3d
       -0.18652375 -0.0816222 -0.05993213 0.11416947
0003c0 52 3d 42 3e 5b db 96 3e fa 77 0f 3e d4 bb 50 bc
       0.18968704 0.2946423 0.14010611 -0.012740094
0003d0 b1 55 13 3d d9 7d 73 bd 49 04 a3 3e b0 38 26 3e
       0.035970394 -0.05944619 0.31839207 0.16232562
0003e0 44 37 8d 3d 23 f6 ef bd 84 46 a6 bd f1 f9 d8 3d
       0.06895307 -0.11716869 -0.081189185 0.105945475
0003f0 c5 ca 27 be ca 82 04 3d e9 4b 13 3e 84 99 34 bd
       -0.16385944 0.032351293 0.14384426 -0.044091716

hidden1.0.bias f4 [400]
000000 2a 3c fb 3d d3 f0 a6 3d 4c ef 23 bc 35 7b be 3d
       0.12267335 0.08151402 -0.010005783 0.093008436
000010 e6 5a af 3d 45 ff 0c be 89 3f 29 3d 9c d3 9f 3c
       0.085622594 -0.13769253 0.041320357 0.019510083
000020 a4 71 4f bd 84 40 b5 bd 07 c8 2d be 6c d6 5e 3e
       -0.050645486 -0.08850196 -0.16970836 0.21761483
000030 dd 86 99 3d 42 2b 0f be cd 49 a8 3e 92 18 05 3e
       0.07496426 -0.13981345 0.32868806 0.12997654
000040 4c 0a 44 3d 8b 80 85 3e 5d c7 0f be 71 dc 68 3d
       0.047861382 0.26074633 -0.14040895 0.056850854
000050 f0 17 5e bd 7a 09 81 3c 3b c7 0c 3d 3d 47 7c bc
       -0.054222047 0.01575159 0.03436969 -0.015397844
000060 d1 3d 05 bd 9d 8a 89 3e 4f 5f b3 bd ec 0c 24 3e
       -0.032529656 0.26863566 -0.08758413 0.16020554
000070 f6 d7 d9 bd f5 69 6d bd 77 0a a3 bd 9b b4 2a be
       -0.106368944 -0.057962377 -0.079609804 -0.16670458
000080 f8 c3 cb bc 4d fa 93 bd c9 15 1a be 7e e5 75 bd
       -0.024873719 -0.072254755 -0.15047373 -0.060033314
000090 e4 b6 70 3d be 3c 70 3c de ad 03 be 2f 84 af 3d
       0.058768168 0.01466292 -0.12859294 0.08570134
0000a0 11 c1 21 be 84 ce da 3c 29 5a d1 bd 84 a1 c9 bd
       -0.15796305 0.026709802 -0.10222275 -0.0984526
0000b0 26 cf 43 be 97 59 66 bd d7 9e a3 bd 04 9f 5a 3e
       -0.1912199 -0.056237783 -0.07989281 0.21349722
0000c0 20 f0 ca 3d 42 67 c1 3d 3b 0c 08 3d c9 b6 57 3d
       0.099090815 0.09443523 0.03321479 0.052664552
0000d0 a5 ec 3b bd 58 d1 23 be c3 1a 01 3e 56 e9 a1 3d
       -0.04587998 -0.15997827 0.12607865 0.079058334
0000e0 08 54 c9 3c 82 46 f8 3d 60 97 e2 3d 04 8e 1f 3d
       0.024576202 0.12122823 0.11064029 0.038953796
0000f0 a6 56 65 3e 24 e2 11 3e 73 28 ef 3d 20 5f 82 3d
       0.22396335 0.14246422 0.11677637 0.063658
000100 d3 cd c3 3d 63 ac 06 3e 4f 38 19 bd ad 6a 12 3c
       0.09560742 0.13151698 -0.037407216 0.008936566
000110 3f 3d a1 bd ac 68 c7 bd 5e 70 c4 3d 5f 10 2a 3d
       -0.0787301 -0.097367615 0.09591745 0.04151952
000120 7b 31 82 bc 5a 1d 97 3c 38 d7 53 3e 69 b7 4c 3e
       -0.015892735 0.018446613 0.20687568 0.1999184
000130 ed 71 16 3d 80 e7 2c 3e 90 c9 0c bd 46 38 47 3e
       0.03672974 0.16885185 -0.034371912 0.1945506
000140 d1 3e 5c 3e 5f 76 c4 3b 81 33 22 bd c5 1e 65 bd
       0.21508338 0.0059955562 -0.0395999 -0.055937547
000150 7a 18 57 3e 47 36 d8 3d a5 08 34 3e 40 34 49 be
       0.21005431 0.105572276 0.17581423 -0.19648838
000160 7e c1 b5 bd a1 15 13 3d 52 5e 18 3e cc 8b 8f 3d
       -0.08874796 0.0359093 0.1487973 0.07009086
000170 fe a0 e5 3d 39 5e 96 3e 63 13 84 3e a2 d8 e2 3d
       0.112123474 0.2936876 0.2579604 0.11076476
000180 c7 a0 19 3d c3 63 d4 bd 5d f3 0c bc ea e7 af 3d
       0.037506845 -0.103705905 -0.008602944 0.08589156
000190 d5 21 b0 3d be ab e3 bd 05 c9 ec 3b af cc ef 3d
       0.08600203 -0.111167416 0.007226112 0.11708962
0001a0 25 86 90 bd 02 76 aa bd 46 e0 3f 3e 27 79 25 be
       -0.07056836 -0.083232895 0.18737897 -0.16159497
0001b0 56 02 30 3e c9 29 ee 3d 71 61 a0 3b d1 29 be bb
       0.17188391 0.11629064 0.0048944284 -0.0058033247
0001c0 15 26 84 ba 0a 61 90 3d 2a d9 82 bb 1b 08 dc 3c
       -0.001008215 0.07049759 -0.003993173 0.026859334
0001d0 64 03 00 be 29 38 d0 bd 3e 3b 4c bd b6 4a e5 3d
       -0.12501293 -0.10166962 -0.049861185 0.111958906
0001e0 21 2f 3b 3d a0 9c 25 3e 9f 6e ae bd 50 f3 cc bd
       0.045699243 0.16173029 -0.08517193 -0.10007346
0001f0 fb 19 c6 3c 88 70 83 bc 5a ba 0e be 09 9e 85 3e
       0.02418231 -0.01604487 -0.13938275 0.26097134
000200 a1 4c 29 be d4 e8 c9 3d 9d 59 45 3e b4 a4 87 3e
       -0.16533138 0.098588616 0.19272466 0.26492846
000210 61 94 f9 3d ff 1b 9e 3c 5b bc d8 bd d3 46 99 bc
       0.12186504 0.019300459 -0.10582801 -0.01871053
000220 8b ab dd 3d 68 66 d6 bc e1 3e fc bd 47 06 8a ba
       0.10823735 -0.026171878 -0.12316681 -0.0010530435
000230 ed 02 f3 3b d6 f3 2a 3e 16 ee a6 3d b8 05 ad bd
       0.0074161203 0.16694579 0.0815088 -0.084483564
000240 78 6e e5 3d 4e 38 db 3d dd 8f 81 3e 5d 51 13 3e
       0.11202711 0.10704099 0.2530507 0.14386506
000250 59 ba 24 3e 3d be 1f 3d 59 82 c3 3c b0 f3 01 bd
       0.16086711 0.038999785 0.023865866 -0.03172654
000260 8d 4b b7 38 77 a3 24 3a 0d 2b 23 3e 60 c6 2c be
       8.7401924e-05 0.00062804617 0.15934391 -0.16872549
000270 55 f1 5e be 5c 85 d1 3b ee 2d 41 3c 75 d3 53 bd
       -0.21771748 0.0063940715 0.011790736 -0.051715333
000280 43 75 0f 3e da ca 25 3e 7e 49 ae bb 6d 40 35 3e
       0.14009576 0.16190663 -0.0053188195 0.17700358
000290 6f 29 5c bd 0a 3c b3 3d 16 75 de 3d 45 a1 3c bd
       -0.05375045 0.08751686 0.10862176 -0.046052236
0002a0 0f cf 36 3c 86 eb bf bd 01 a0 b3 bd 4b d5 b1 3c
       0.011157765 -0.093710944 -0.08770753 0.021708151
0002b0 19 fe 95 3d 35 45 4b bd e7 3a ac bc 46 0a ec 3d
       0.07323856 -0.049626548 -0.02102418 0.11525397
0002c0 ab 00 87 3e 97 14 e9 bd 87 b4 61 bc b2 a3 95 3e
       0.26367697 -0.1138088 -0.013775951 0.29226452
0002d0 12 8a 3e be cf 45 63 bd 93 b0 03 bd e5 60 b7 bd
       -0.18607357 -0.055486497 -0.032150816 -0.08954028
0002e0 68 73 57 be ba 1e 91 3e 37 85 1d 3e 83 e0 fd 3d
       -0.21040118 0.28343755 0.15382849 0.12396338
0002f0 fb 34 a7 3b 15 35 1f 3b 4f 88 c2 3d a9 76 f5 bd
       0.0051027513 0.0024293114 0.09498655 -0.11985523
000300 3e 05 1a bc cd 76 04 3d f8 d0 b2 3d 5d d8 e3 3d
       -0.009400664 0.03233986 0.08731264 0.111252524
000310 3b 59 26 3e f5 0e 30 3e 78 e1 7d 3e 3b 42 4c 3e
       0.16244976 0.17193206 0.24793041 0.1994714
000320 32 25 c4 3d a9 ce e4 bd 96 9e 7c 3d 45 a5 14 bc
       0.09577407 -0.1117223 0.061674677 -0.009072606
000330 4f 35 3c bb 2d 72 05 3e c7 82 94 3e 37 0d b2 bd
       -0.0028718298 0.13031836 0.29006025 -0.08693927
000340 eb 46 d2 3d 8d b6 8f bd c5 27 24 3d f6 54 70 3e
       0.10267433 -0.07017241 0.04007699 0.2346991
000350 63 7c 09 be 68 48 6a 3d 3f 1c 00 be fd 07 ed 3b
       -0.13426356 0.05719796 -0.12510775 0.0072336183
000360 ef 6f 04 3e f3 84 78 3d 55 86 39 3e 1c 65 f2 3d
       0.12933324 0.060673665 0.1811765 0.11835691
000370 2e ed 2e 3d 1d 8e 96 bd d5 ed 07 3e 67 64 32 3d
       0.04270666 -0.07351325 0.1327432 0.043552782
000380 eb 06 17 3e cf 64 f2 3c 6a 7f 0c 3e a3 2c a4 bd
       0.14748733 0.029589085 0.1372048 -0.08016326
000390 24 91 9f 3d f5 d8 34 be 05 0c 7b bd 7d 6f a5 bd
       0.07791355 -0.17660888 -0.06129076 -0.08077905
0003a0 6b 17 35 3d ef 79 d5 bd d7 b5 18 be d7 ae e9 3d
       0.044211786 -0.104236476 -0.14913116 0.11410301
0003b0 db bf a4 3d c2 46 b9 bb 26 e2 f2 3d 91 f8 44 3c
       0.08044406 -0.005654187 0.11859541 0.0120221535
0003c0 56 0f d9 bc ea de ff bd 3e 9e f2 3d a0 57 88 3d
       -0.02649657 -0.12493689 0.118465886 0.06657338
0003d0 a8 64 83 bd 6c 8f e1 b9 68 3e 60 3d c3 3c 09 bd
       -0.06415683 -0.00043022202 0.054747015 -0.033505213
0003e0 ac 1b 70 3e c5 05 ba bc e6 07 f8 3a b6 cb 1d 3d
       0.23448056 -0.02270783 0.0018923252 0.038524352
0003f0 a3 a0 1b bd e8 9c 14 3e 57 b6 10 3e 40 ff 78 3d
       -0.037994992 0.1451298 0.14132057 0.0607903

hidden2.0.weight f4 [300, 400]
000000 c7 29 96 3d 93 11 d9 3c 40 c0 cd 3d 38 55 1c 3c
       0.07332187 0.026497638 0.100464344 0.009541802
000010 88 41 d0 bd 80 08 f5 bd 6d 3a b6 3c f3 1d 4f 3d
       -0.10168749 -0.11964512 0.022244656 0.05056567
000020 b1 37 8d bd 48 e4 b6 bd e8 14 27 be 25 4a 4b 3d
       -0.06895388 -0.0893026 -0.16316569 0.049631257
000030 bd c0 b0 3d 2e c5 8b 3a 61 dd 92 3d 1b 14 93 3d
       0.08630512 0.0010663623 0.07171131 0.07181569
000040 9f 08 11 3e 9b cd 5b 3d c2 3d 09 be df 46 22 3d
       0.14163445 0.053662878 -0.13402465 0.03961837
000050 bd 31 7a bc 73 90 91 3d f6 27 3e 3b 0d f3 c5 bd
       -0.015270648 0.071076296 0.0029015518 -0.09665499
000060 89 2c 3a 3d 0f 35 0c bd 94 e6 f7 bc 0f bd 48 3d
       0.04545263 -0.034230288 -0.030261315 0.049008425
000070 9e 4f 33 3e 37 cb 0a be ef a5 25 3d 4c f4 57 3d
       0.1751084 -0.13554083 0.04044145 0.052723214
000080 4c 21 81 bd 79 68 ca 3b 12 35 a3 bd 22 63 8a 3d
       -0.06305179 0.006177005 -0.07969107 0.06757189
000090 06 4d 7b 3d c2 57 5e 3d 4c 48 f0 3d 24 ea 06 3e
       0.061352752 0.05428291 0.117325395 0.13175255
0000a0 17 21 df 3d b4 37 d9 3d 6d 86 16 3d 0e 4f 44 b9
       0.10894983 0.10606328 0.036749292 -0.00018721467
0000b0 09 84 e8 3d 70 82 1b 3d dc fd 70 3e 80 b1 1d bd
       0.11353309 0.03796619 0.2353434 -0.038499355
0000c0 8d 9f 0c be 05 05 96 3d 84 10 1a bc b1 19 68 bd
       -0.13732739 0.07325176 -0.009403352 -0.056665126
0000d0 11 59 8e bd dc b1 b4 3b 74 f7 5a be 12 b8 c1 bc
       -0.06950582 0.0055143666 -0.21383458 -0.023647342
0000e0 70 db 4e 3b a6 b7 b2 3d 9b 68 26 bb f3 80 a3 3c
       0.00315639 0.087264344 -0.002539194 0.019958949
0000f0 28 42 16 3e df c9 28 bc 30 c0 14 be 78 75 9e 3c
       0.14673674 -0.010302036 -0.14526439 0.019343123
000100 6a fb aa be 0c a4 20 be 5f b4 dd 3d 88 18 ba 3c
       -0.3339494 -0.15687579 0.10825419 0.022716776
000110 26 cd 03 be 38 e8 77 bd 75 47 14 3d 29 11 8b 3d
       -0.12871227 -0.060524195 0.03620096 0.067903824
000120 13 12 70 bd 3d 9d 03 bc d3 26 7a bc 2f 37 fa bd
       -0.058610987 -0.008033094 -0.0152680455 -0.12217557
000130 76 2e c8 bc dd 19 74 3b a7 45 80 3c e0 01 c2 3c
       -0.024436217 0.003724686 0.015658213 0.023682535
000140 22 b6 3e bd d5 b8 e1 3c 84 2f c5 3d 98 e4 d1 3c
       -0.046560414 0.027553955 0.096282035 0.025621697
000150 64 32 25 3e 07 0f 99 bd c7 41 e9 3d dd cd 10 bc
       0.16132504 -0.07473569 0.11389499 -0.008838144
000160 c6 46 6e 3d f4 66 54 bb 8a 02 f2 3d 67 6b 18 be
       0.058172964 -0.0032409998 0.118168905 -0.1488472
000170 89 a0 31 3d 43 4b 33 bd ed c9 d0 bd d8 f6 20 be
       0.04336599 -0.043772947 -0.10194764 -0.15719163
000180 7a e5 58 bd dd 4e a3 bb 96 53 e2 bc bc fe a7 bb
       -0.05295322 -0.0049837665 -0.027627748 -0.0051268023
000190 8e 1e 07 be 8e a6 ba bd 5d 6b 35 bd 00 9d 44 3d
       -0.1319525 -0.09113799 -0.044291843 0.04800129
0001a0 f7 ce a2 3d 0b 8d f0 3d 00 7a f6 3b 4f 85 0a 3e
       0.07949632 0.11745652 0.0075218678 0.13527416
0001b0 fd 6e fb 3d 94 ae 91 3c ec c7 05 3b 29 2a fb bd
       0.12277029 0.01778344 0.0020413352 -0.12263901
0001c0 4c 07 27 be 41 7c 03 3e 4c 1f 80 3d 09 c5 a6 bd
       -0.16311377 0.12840368 0.062559694 -0.0814305
0001d0 15 d8 d1 3c d3 4f 1e bc 64 f7 26 bd 71 a2 91 3d
       0.025615731 -0.009662586 -0.040763274 0.07111061
0001e0 0c c2 88 3b 22 ad a0 3d 1b 9b d9 3c 73 02 4c 3d
       0.004173523 0.078455225 0.026563218 0.049807023
0001f0 5b b8 31 bd 34 13 c1 3d a4 eb b3 bd f0 c3 55 3d
       -0.043388706 0.09427491 -0.08785179 0.052188814
000200 fd 52 02 3c 70 8a 34 3d f9 ad 6c 39 e3 3e 31 3d
       0.007954356 0.044077337 0.00022571524 0.043272864
000210 ce 73 8a 3c 8c 36 89 bd 25 83 19 3e 78 b3 96 bc
       0.016900923 -0.06699857 0.14991434 -0.018396124
000220 33 5a b3 bc 2a 00 86 bd 14 c2 62 3c 63 77 d6 bc
       -0.021893596 -0.06543 0.013840217 -0.026179975
000230 9d fa 42 3c f5 79 b8 bd 8e c4 be 3d 84 20 24 3d
       0.011900571 -0.090076365 0.093148336 0.04007007
000240 e6 56 88 bc 63 12 95 bd 05 9b 41 3c bf 56 ec bc
       -0.016642999 -0.072788976 0.011816745 -0.028849958
000250 9f b6 68 bc f8 76 ae 3d 23 83 45 bd 15 08 13 3d
       -0.0142036965 0.08518785 -0.048220765 0.03589638
000260 6d 2e 50 3c df 69 0e 3e c6 d3 9d 3d 6c f0 8c 3d
       0.012706381 0.13907574 0.07706408 0.06881794
000270 48 9d 1f bd bd 24 62 bd e9 2a 0f be f5 33 b4 3d
       -0.038968354 -0.055210818 -0.13981213 0.087989725
000280 8f b1 4d be df ed 77 3b 61 df 1c be cf ab 01 bd
       -0.20087264 0.0037830991 -0.15319587 -0.03165799
000290 ab e1 14 bd 78 1c 02 be f5 54 96 3c cd 00 91 bd
       -0.036348026 -0.12706172 0.018351058 -0.07080231
0002a0 d2 61 76 3d 98 26 f3 3d 86 60 b8 3d ff 3a 73 be
       0.060151882 0.118725955 0.090027854 -0.23752974
0002b0 c3 a2 a9 bc 29 2b ba bc ac ed 07 3d 28 fd 4d bc
       -0.020707494 -0.022725658 0.033185646 -0.012572564
0002c0 78 19 1b 3e bf 2e 8d 3d 13 c2 82 3b 78 11 50 bc
       0.15146434 0.06893682 0.0039904206 -0.012699477
0002d0 74 d6 5d bc e7 0f 13 3e cc ea e3 bd 28 b7 74 3d
       -0.013539899 0.14361535 -0.11128768 0.059744984
0002e0 f5 21 54 3c 65 95 8d bb e3 40 ae 3c 3e bb 4b 3e
       0.012947549 -0.0043207877 0.021271175 0.19895646
0002f0 eb 8a 83 3d 4e 07 14 be 1a 4a 52 3d 48 d3 94 bd
       0.06422981 -0.14455912 0.0513402 -0.07266861
000300 84 a1 d2 bd df dc f9 3d fa 00 a5 39 ff 23 97 bc
       -0.10284713 0.12200331 0.0003147198 -0.018449781
000310 e4 ab 2a be 83 d1 5a 3c eb 58 1f 3d 00 d3 57 3e
       -0.16667134 0.013355616 0.03890316 0.21076584
000320 cb c4 35 bd f5 8d bc 3d 8d 99 df 3b fd 72 b7 3c
       -0.04437713 0.09206764 0.0068237246 0.022393698
000330 09 ba ac 3c c0 ee fd bd d5 c2 03 be 13 61 b6 3b
       0.021084802 -0.123990536 -0.12867291 0.0055657714
000340 67 fe af bc aa b9 da bd 96 35 09 3e 78 d5 1a 3d
       -0.021483613 -0.10679944 0.13399348 0.037801236
000350 1f e5 a3 bd 76 70 a9 bd 9c a1 12 be 82 f2 7e bd
       -0.08002686 -0.08273403 -0.14319462 -0.062242992
000360 d7 fd e9 3d fb bb 3f 3d 0f be 99 3d de a5 81 3d
       0.11425369 0.04681013 0.07506954 0.06330465
000370 b2 1e 3b 3d 19 c4 9e 3d 55 73 f6 3a 64 f1 5e bd
       0.04568357 0.077522464 0.0018802682 -0.054429427
000380 56 e7 fa bd 91 62 d2 bc 3a ec 78 be 1d d1 bf 3d
       -0.12251155 -0.025681766 -0.24308863 0.09366057
000390 dd 6c c0 3d bb 5c 0c bd 67 bf bb bd 15 c7 63 bb
       0.09395764 -0.034268122 -0.091673665 -0.0034756113
0003a0 65 d9 0f 3d 89 cb 71 3d 38 61 9b 3c 5f f6 03 be
       0.035119433 0.059031997 0.018967256 -0.12886952
0003b0 3d d7 32 3b 9e 19 cd 3b 92 84 b7 bd c5 e2 26 bc
       0.0027288937 0.0062591573 -0.08960833 -0.010185902
0003c0 90 82 79 be e0 05 1d bd 6c f2 44 3d b2 a8 3c be
       -0.24366212 -0.03833568 0.048082754 -0.18423727
0003d0 48 ff 59 3e a1 1c e3 3d 24 08 d7 3c 25 0c 8f 3d
       0.21288788 0.11089445 0.026248999 0.06984738
0003e0 c9 2d 5a 3d 29 6c 80 3d bd 15 1f 3d 95 47 97 3d
       0.05326632 0.0627063 0.03883909 0.073867
0003f0 ca e4 26 3e e5 b3 d1 3d 60 ed 04 be fb c4 00 bb
       0.16298214 0.1023939 -0.12981176 -0.001964866

hidden2.0.bias f4 [300]
000000 59 24 9c bc 42 e6 b8 3c d5 dd 87 3c 9a 3d 1f bd
       -0.0190603 0.022570733 0.01658527 -0.038877107
000010 82 c7 2b 3d 51 04 bb bc c8 55 91 3d 85 e5 ce 3c
       0.041938312 -0.022829207 0.070964396 0.025255928
000020 70 c9 54 3c 62 2d 5b 3d af c4 2e bc 0f ad 3e bb
       0.01298748 0.053510077 -0.01066701 -0.002909485
000030 7b 13 79 3b a0 22 58 bd d1 b6 fc bb 9d 7f 88 3c
       0.0038005996 -0.052767396 -0.007712223 0.016662413
000040 95 33 92 bc 6f 72 d2 bc f3 e9 23 3d a5 32 96 3d
       -0.017846862 -0.025689332 0.040018033 0.073338784
000050 46 c8 82 bd 65 29 30 3d 10 00 e2 3b e5 c7 13 bc
       -0.063858554 0.043008227 0.00689698 -0.009019827
000060 11 7e 79 3b 07 67 55 3d ff 1a 97 3c bb b6 6c bc
       0.0038069526 0.052100208 0.01844549 -0.014447863
000070 3e 48 12 bd da 41 6a bb 43 15 9d bd 2e 16 b8 39
       -0.035713427 -0.0035744817 -0.07670071 0.0003511174
000080 60 53 b3 bc da 55 fd b9 29 40 c4 bc c7 c0 aa 3b
       -0.021890342 -0.00048319885 -0.023956375 0.005210969
000090 4b 68 bf bc 80 d5 07 3d f9 ea b7 bc 22 13 ad 3c
       -0.02336516 0.033162594 -0.02245091 0.021127287
0000a0 7d 12 97 3c f0 3d 28 bc ee 95 c4 3b 92 00 ef bc
       0.018441433 -0.010268673 0.0059993183 -0.029175077
0000b0 12 37 12 bd 7f fd 1f bb 79 74 ae 3a be df 8e 3d
       -0.03569705 -0.002441257 0.0013309858 0.06976269
0000c0 96 e7 78 bc 62 53 5d 3d ec 27 10 3d 4d eb 3c bd
       -0.015191933 0.0540346 0.035194322 -0.046122838
0000d0 d7 49 2e 3d a5 d7 5e bd e7 96 7d bd 93 c5 7a 3c
       0.042550888 -0.054404873 -0.06191149 0.015305894
0000e0 8b 76 27 bd 7a bb 2e 3c 12 c2 3c 3d ab a1 03 bc
       -0.040884536 0.010664815 0.046083517 -0.00803415
0000f0 97 10 8c 3d 23 cf a2 bc 99 fd 6f bd db e0 4f 3c
       0.06839102 -0.019874161 -0.05859146 0.012687887
000100 09 df f3 3c 43 d4 b2 bc 6c 10 8d 3c 1e 84 30 3d
       0.029769437 -0.02182973 0.017219745 0.043094747
000110 8b 8c ab bc 10 e0 9d 3d 41 ac 4c bd cb e8 02 3d
       -0.02094104 0.07708752 -0.04996896 0.03196029
000120 86 e1 0b 3c 4a a3 9d 3d ab df ef 3c 60 28 49 3c
       0.008537656 0.076971605 0.029281458 0.012277693
000130 53 72 fd 39 66 09 16 bd 49 d0 0e 3b 4c 0a 9a bc
       0.000483411 -0.036630057 0.0021791628 -0.018803738
000140 98 81 22 3c d6 89 9c 3d 2e 50 23 3d af 42 04 bd
       0.009918593 0.076434776 0.039871387 -0.032290157
000150 53 e6 4a bc 9d 37 80 3c 5f a0 ce bc 0f 77 58 3c
       -0.012384015 0.015651518 -0.025222955 0.0132119795
000160 cb 6b d6 3c 95 79 ed bc 55 3e 32 3c 8c 0b 82 3d
       0.026174447 -0.028988639 0.010879119 0.06349859
000170 9d 99 4c 3d 7e 11 47 bd 71 6d a9 bb b4 b4 0a 3d
       0.049951185 -0.048600666 -0.005170517 0.03386374
000180 9c 73 61 3c 19 c8 04 bc a5 ec 34 bd 41 6b 69 3c
       0.013760474 -0.008104348 -0.044170994 0.014246763
000190 b3 86 93 3c b5 97 88 bd 33 b5 63 bc eb 72 ab 3c
       0.018008566 -0.06669561 -0.013898182 0.02092882
0001a0 9a 84 11 3d 6d a4 45 bc bb 3f 5b bd 96 42 c7 3c
       0.03552685 -0.012063128 -0.053527575 0.024323743
0001b0 74 36 6d bd eb 8b 57 3c 4b eb 50 bd af 2f f5 bb
       -0.05791326 0.013155918 -0.051005643 -0.007482491
0001c0 36 67 8e 3d 29 3a 60 3d c2 f4 37 bc f7 da 55 3d
       0.0695328 0.054742966 -0.011227788 0.052210774
0001d0 76 cb 34 3c ae c1 04 3c ae 39 5e bd 9d f3 7a 3b
       0.011034837 0.008102817 -0.054254226 0.0038292177
0001e0 33 82 13 bd 6f 7d 57 3d 3c 4a 1d 3d fe 97 20 3c
       -0.03601284 0.052609857 0.038400874 0.009801863
0001f0 f1 cc e3 3c 2f 55 cf bc 92 15 d4 bc 56 bf 89 3c
       0.027807685 -0.025309173 -0.025889192 0.016814869
000200 73 d1 97 bd 17 ef a6 3c d6 91 ce 3c 87 3a 94 3d
       -0.07412996 0.020377679 0.025216024 0.07237726
000210 a8 05 41 bd 83 ed 36 3d 07 e7 80 3d b6 53 46 bb
       -0.047124535 0.044660103 0.06294065 -0.0030262298
000220 91 c1 b2 bc dc ea ca 3c ab 3d 1c bd 7e eb d9 bc
       -0.021820815 0.024770193 -0.03814475 -0.02660155
000230 a3 65 20 bb 4e b2 ac 3c 78 9f c4 bb a5 30 24 bd
       -0.0024474643 0.021081116 -0.0060004555 -0.040085454
000240 b2 7a 28 bd dd 40 cd bd 17 70 a5 3c 9c e7 84 bd
       -0.041132636 -0.10022137 0.02019505 -0.064894885
000250 6d 51 d5 3c 65 b1 bb bc 81 a0 1c 3d f7 f3 5b 3c
       0.026039803 -0.022911737 0.038239006 0.013424865
000260 16 97 1d bd 44 7a 72 3c ac f2 a9 3c 36 f8 20 bd
       -0.038474165 0.014799658 0.020745598 -0.039299212
000270 09 a0 ae bc 1e af c1 bc 38 c8 20 3c 3e 27 40 bb
       -0.021316545 -0.023643073 0.009813361 -0.0029320265
000280 43 50 cb bd 09 84 3c 3d 0d ca f9 3b c0 ae 6a 3d
       -0.09927418 0.046024356 0.0076229633 0.05729556
000290 f8 10 1b bc fa f3 31 3d 35 f6 72 bc ef 5b 53 3d
       -0.009464495 0.043445565 -0.014829208 0.051601347
0002a0 57 b0 ac bc 3b 0b 99 bb 7d 7f a1 3c 4e c3 6c bc
       -0.02108018 -0.004670528 0.019714111 -0.014450861
0002b0 53 00 f0 bc 0f f8 30 bd b5 2c 34 bd 7d 0f 86 3a
       -0.02929703 -0.043205317 -0.04398795 0.0010228005
0002c0 cd 0d ab bb d9 45 13 bd 2c 85 73 bb 9d fb 77 bc
       -0.005220151 -0.035955284 -0.0037158234 -0.015135673
0002d0 6f a2 ba 3c 5d 6e 48 3d 39 3c 12 3d c8 49 1b 3d
       0.022782532 0.048933376 0.035701964 0.03791216
0002e0 30 39 14 3d 35 72 12 bd 75 81 96 3d 83 63 31 3d
       0.03618735 -0.035753448 0.07348911 0.043307792
0002f0 7c d4 0d 3d db 76 8a bd b8 fc 61 bb ee fb 14 bd
       0.03462647 -0.06760951 -0.0034482908 -0.03637307
000300 3f 03 36 3c 08 ea 0e bb 07 8a 1c 3d 29 f3 ae bc
       0.011109172 -0.0021806974 0.03821757 -0.021356182
000310 58 ff 3b bd a9 7e 12 3c 84 ab 86 bc eb e7 0c bd
       -0.04589781 0.008941331 -0.016439207 -0.03440086
000320 3e 91 a8 3c 7b 04 68 3c 00 96 d8 bc cf 8f 52 3c
       0.02057707 0.0141612245 -0.026438713 0.012851669
000330 01 1b 8f 3d 22 7b 1e 3c 2a 9b d2 ba 9c 1b 2a bd
       0.069875725 0.009672912 -0.0016067971 -0.041530237
000340 f8 1c 01 bd 60 1d 09 bd d2 13 de bc e0 1c 13 bb
       -0.031521767 -0.03347528 -0.02710906 -0.002244763
000350 a2 22 2c 3d 9a 50 ad bd bf ea 39 3d 0e a0 7f 3c
       0.042025216 -0.08462639 0.045389887 0.015602125
000360 19 0f c6 bc 76 79 fc 3c 3d ed a9 bc dc 33 16 3d
       -0.024177121 0.030819636 -0.020743007 0.03667055
000370 d1 93 45 3d 72 5e 0c bc bc 66 1f bd f0 e7 00 3d
       0.04823667 -0.008567439 -0.038916335 0.031471193
000380 73 5f cf 3c 97 94 ae 3b 3d 16 1a 3d 66 3e 18 3c
       0.025314068 0.005327772 0.037618864 0.009292221
000390 98 52 27 3d 28 8c 27 3d c5 3f 24 bc eb 40 9f bd
       0.040850252 0.040905148 -0.0100249695 -0.07776054
0003a0 bf a5 01 3d e4 fd b8 bc 00 36 a8 bc 77 0c 48 3d
       0.03165221 -0.022582002 -0.020533562 0.048840012
0003b0 c7 82 e5 bc b5 6f f8 3c 46 82 67 bd f5 fd a4 3d
       -0.028016461 0.030326704 -0.056520723 0.08056251
0003c0 73 97 35 bd 91 47 6a bc 79 d9 2a bc 19 fc 75 3c
       -0.044333886 -0.014299289 -0.010427826 0.015013718
0003d0 1c 46 81 bb d7 4f a3 bc 71 1c 9f bc c3 75 2d 3c
       -0.0039451253 -0.019935532 -0.019422742 0.010587159
0003e0 b8 6d 59 bd a5 6e be bd 2b 6a 0a 3d 04 4d a4 3c
       -0.05308315 -0.092984475 0.033792656 0.020056255
0003f0 d3 36 1b 3d ca bc 0e bc c2 fa f0 3b 51 a2 1a bd
       0.03789408 -0.008712003 0.0073541114 -0.037752453

output.0.weight f4 [4, 300]
000000 1c 01 90 3e 6c 3b 18 3e c9 74 0b bd 74 b5 9a bd
       0.28125846 0.14866418 -0.034046922 -0.07554141
000010 3a b1 8e bd 31 de 2f 3d 1e 49 32 be 95 53 a8 3c
       -0.06967397 0.042936508 -0.17410704 0.020547668
000020 7c a6 c7 3d 91 87 c9 bd 7e 5b e3 3d ec 06 a8 3e
       0.09748551 -0.0984031 0.11101435 0.3281778
000030 cc a1 1b be cf 36 40 3d 2f 3b 55 be 38 6f 1b 3e
       -0.1519844 0.04692727 -0.20823358 0.15179145
000040 ab de a5 3e 3a ae 77 3d cc b9 1f 3d 41 93 5d be
       0.32396445 0.06046889 0.03899555 -0.21638204
000050 a5 11 2a bd 8d 21 86 be 74 54 90 3d 7a 9f 5d 3c
       -0.041520733 -0.26197472 0.07047358 0.013526792
000060 69 bf 28 be f2 84 1a be a1 d9 15 be f6 35 54 3e
       -0.16479267 -0.15089777 -0.146338 0.2072371
000070 6e 38 46 be 2a 9c 2d 3e a3 a2 c8 bd 92 c9 06 be
       -0.19357464 0.16954103 -0.097966455 -0.1316283
000080 1e 8b 75 be e3 12 06 3e 03 2b b3 bd 55 c9 0b 3e
       -0.2397885 0.13093142 -0.08748438 0.13651021
000090 4e 47 b4 be 65 8f 3b be ad 49 3e 3e 66 b7 f3 3e
       -0.3521065 -0.1831642 0.18582793 0.4760086
0000a0 66 42 c7 3e 02 b4 c1 3d 60 ed 12 3e c2 68 a1 3e
       0.38917845 0.09458162 0.14348364 0.31525236
0000b0 2e a8 1e be 33 be b1 bc 87 8f 56 be f4 c4 66 bd
       -0.15493843 -0.02169714 -0.20953189 -0.056340173
0000c0 1b 9f 95 3c cc 12 8b be b1 2f 96 bb 30 69 74 3d
       0.018264344 -0.27162778 -0.004583322 0.059670627
0000d0 38 21 ce 3e fe 2e de 3e 45 59 cc 3d f0 8b 98 3e
       0.4025972 0.43395227 0.09977964 0.29794264
0000e0 21 dc 97 3e 54 fa 7b 3e 85 05 8a bc 47 87 1d 3e
       0.29660133 0.24607211 -0.016848335 0.15383635
0000f0 37 f6 7b 3e 83 d7 1b be 67 16 83 3e 15 49 58 3e
       0.24605642 -0.1521893 0.2560303 0.21121629
000100 58 cc 60 3e 47 4b 0d 3e 47 bc 3f 3e 02 ef 0c be
       0.21952951 0.13798247 0.18724166 -0.13763049
000110 63 ed 44 be f5 29 28 bd 10 8d 19 be a9 9e d7 be
       -0.19231181 -0.04105564 -0.14995217 -0.42113236
000120 99 42 29 be 9a ac 66 3e ae 15 d4 3d 3d a8 bb 3d
       -0.16529311 0.2252678 0.103556976 0.09162948
000130 c2 d0 b2 3e f2 39 4c be 44 cb c0 bd ec 9a 8e be
       0.34924895 -0.1994398 -0.0941377 -0.2785257
000140 81 9d 4b 3e 99 fe b6 3e 61 91 3b 3e c5 31 bd 3c
       0.19884302 0.35741118 0.18317176 0.023095021
000150 68 be b7 3d 77 82 f0 bd 16 1d 54 3e c2 f8 0a be
       0.08971864 -0.11743634 0.2071422 -0.13571456
000160 f3 ab 66 bd 75 6d fd be fc ef 8e 3b ad 6b af 3e
       -0.056316327 -0.49497572 0.0043621045 0.34261838
000170 30 78 66 3e eb 01 59 bd e8 5e b6 3e 00 18 c7 bd
       0.22506785 -0.052980345 0.35619283 -0.097213745
000180 85 75 e5 bd c7 67 29 be 1d 8c 08 bf 11 0e c9 bd
       -0.11204056 -0.16543494 -0.53338796 -0.09817136
000190 52 f2 06 3e 29 a7 30 3e 7a ec 93 3d 01 0d a8 be
       0.13178375 0.17251267 0.07222839 -0.3282242
0001a0 b9 dc 69 bd 58 67 9f be 40 b0 1c bd 2f 68 5d be
       -0.057095263 -0.31133533 -0.038254023 -0.21621774
0001b0 2d 9f 42 be 13 1b 0a be d4 cf 80 be 56 b8 47 3d
       -0.19006033 -0.1348689 -0.2515856 0.04875978
0001c0 28 8f 1b be 73 60 88 bd f7 26 fa bd 6c dc fb bd
       -0.15191329 -0.06659021 -0.12214463 -0.122979015
0001d0 e4 f1 55 3c b3 a0 8e bd 3e 07 1a bd 39 bb 68 3c
       0.0130581595 -0.06964245 -0.037604563 0.014204794
0001e0 76 76 f5 bd 5b d7 83 3e ec a9 31 3d 31 12 31 bd
       -0.11985485 0.2575024 0.04337494 -0.04323024
0001f0 a5 1e 86 be fb 7d 5a be 1d 6f e9 3d e0 be b9 be
       -0.26195255 -0.2133712 0.11398146 -0.3627844
000200 f6 c7 99 be 96 e8 57 be 89 2b b5 bd c2 fd 0c be
       -0.3003537 -0.21084818 -0.08846194 -0.13768676
000210 e0 0a 0e be 7e 91 19 be 77 0e 9c be f9 a1 f5 3d
       -0.13871336 -0.14996907 -0.30479786 0.119937845
000220 08 09 ec bd ee db 3f 3e a5 f4 c7 3d 62 d9 a4 bd
       -0.1152516 0.1873624 0.09763459 -0.08049275
000230 f2 10 37 3e a6 16 27 bc 7c c2 a5 3e 97 c8 14 bf
       0.17877558 -0.010198271 0.32374942 -0.58118576
000240 4a c2 07 3e 60 c6 ae 3d b5 69 cc b9 3c 99 ee bd
       0.13257709 0.08533931 -0.0003898867 -0.11650321
000250 e3 af 96 bd 12 9d 12 be e4 89 50 bd bf cb 78 3e
       -0.073577665 -0.1431773 -0.050912753 0.24296473
000260 68 c4 32 3e 07 3c bf 3e c9 04 07 3e 90 74 3c be
       0.17457736 0.37350485 0.13185419 -0.1840384
000270 57 8b 14 3e f6 c0 90 bd df 08 ac bd 9f c9 8a bd
       0.14506279 -0.070680544 -0.084001295 -0.067767374
000280 ce 57 5f be aa 35 95 be cb 14 1e 3e 99 a5 05 be
       -0.21810839 -0.29142505 0.1543762 -0.13051452
000290 b9 dd 4b be 26 ab f8 3e c3 82 d7 be 23 0b 83 be
       -0.19908799 0.48568076 -0.4209195 -0.25594434
0002a0 7d c7 f8 bd c4 b6 ad 3d 0a c8 14 3e 1c e3 90 3e
       -0.12147424 0.084821254 0.14529434 0.2829827
0002b0 58 4b 8e be 0a 60 dc bd b3 38 26 be 80 41 96 3d
       -0.27791858 -0.107605055 -0.16232567 0.07336712
0002c0 4d 6e 99 bd 43 8b 2d bc e6 c8 9f be d2 53 b6 be
       -0.07491741 -0.010592285 -0.3120796 -0.35610825
0002d0 6e 1f 97 be ed 79 46 3d 98 e3 b9 bb 89 1e 62 3e
       -0.29516166 0.04845612 -0.0056728832 0.2208196
0002e0 5e c9 7c bb e1 ff 14 3e 4b f9 4e 3e 03 31 da 3e
       -0.0038572173 0.14550735 0.20212285 0.42615518
0002f0 df 01 c5 bd 7d c3 79 be bf 36 f5 bd 0c 91 d7 3c
       -0.096194975 -0.24390979 -0.119733326 0.02631428
000300 bc b6 87 bd 2e 5b 2f be c7 fa a9 bd 05 82 c3 be
       -0.06626651 -0.17124626 -0.08299785 -0.38185135
000310 0d be e9 3d 23 28 35 be 99 4b 9a bc 1d d2 81 3e
       0.114132024 -0.17691092 -0.018834876 0.25355616
000320 41 e1 90 3d 9a 59 11 be fc 94 33 3e de 37 e5 bd
       0.07074214 -0.14194337 0.17537302 -0.111922964
000330 08 78 2e 3d 06 b4 39 be 52 e0 f0 3d ef 2e 4e 3e
       0.04259494 -0.1813508 0.11761536 0.20135091
000340 d4 c3 d6 bd 91 e3 84 be fc 65 7f 3e a8 a5 93 3d
       -0.1048657 -0.2595487 0.24941248 0.07209331
000350 54 ce 54 3e fe 72 3a be ee a0 d8 3b 97 8c aa 3e
       0.20781833 -0.18207929 0.006610981 0.33310387
000360 fc a1 9a 3e 1c 61 94 bc 6d ff 22 3e fe fa 96 3e
       0.3020171 -0.018112712 0.1591775 0.29488367
000370 75 45 d6 3b 6c 2f d8 3e ea d0 43 bc 7b a6 18 3e
       0.0065390416 0.4222368 -0.011951664 0.14907257
000380 17 bc b9 bd 00 61 d0 bd f6 7a 83 be c6 33 40 3e
       -0.090690784 -0.10174751 -0.2567975 0.1876975
000390 63 21 55 3e bf a8 e5 bd e7 69 67 be 2b 98 b4 3e
       0.20813517 -0.112138264 -0.22598992 0.35272345
0003a0 fd df 17 3e 83 d8 94 be 44 0f 82 3e 05 39 92 3d
       0.14831538 -0.29071435 0.25402272 0.07139782
0003b0 04 a7 2b 3e 3d ba bb 3c 6c fa 21 3d 7c 32 89 bd
       0.1676293 0.022915954 0.03954546 -0.06699082
0003c0 34 4c 5d 3e 75 f3 0e 3e 7d 74 d2 3c 0c e8 36 bd
       0.216111 0.13960059 0.025690312 -0.04465489
0003d0 85 86 c1 bb 93 1b 88 3e a1 40 3b 3e 4b 2a af be
       -0.0059059286 0.26583537 0.18286373 -0.34211954
0003e0 cf 4c 72 3e 20 2f df bd 92 89 1f 3d 91 0d 95 3e
       0.23662113 -0.1089766 0.038949557 0.29111913
0003f0 58 8d 6c 3e a8 62 96 3e 7a 37 c0 bc f0 ee f8 bc
       0.23100793 0.29372144 -0.023463953 -0.030387372

output.0.bias f4 [4]
000000 86 cb 18 3d 95 f8 2c 3c d3 d0 16 3d c1 cb a3 bc
       0.03730347 0.010557313 0.036820244 -0.019994618
