checkpoint_critic_20210724.pth (torch_old, 261853 bytes, 7 tensors)

hidden1s.0.weight f4 [100, 33]
0	0x3d062352	0.032748528
1	0x3e91ea47	0.28499052
2	0x3eb4f90b	0.35346255
3	0xbde91d82	-0.11382581
4	0xbe6c4d23	-0.230763
5	0xbf1be8ee	-0.609023
6	0xbf6b7b19	-0.9198471
7	0x3e1baff0	0.15203834
8	0x3dac4a38	0.084125936
9	0xbd82e9d8	-0.063922584
10	0x3d7286a1	0.059210423
11	0x3db44845	0.08802847
12	0x3c5a29e7	0.013315654
13	0x3e8936fb	0.2679976
14	0xbe407ee5	-0.18798406
15	0xbf19f85b	-0.60144585
16	0x3fa45ad0	1.2840214
17	0x3e904bc3	0.28182802
18	0x3f6eed49	0.9333082
19	0x3ea82ce0	0.32846737
20	0xbdc26994	-0.09492794
21	0xbcbedddf	-0.023299156
22	0xbd89dfc1	-0.06732131
23	0x3daa23b9	0.08307595
24	0xbe1003a4	-0.14063889
25	0xbd36b16d	-0.0446028
26	0xbe759fe2	-0.23986772
27	0x3f1e2538	0.6177554
28	0x3e053b10	0.13010812
29	0x3dea04e4	0.11426714
30	0xbf0d5ee7	-0.55222934
31	0xbd27cf30	-0.040969074
32	0xbeebbdfa	-0.46043378
33	0xbd81c17a	-0.06335731
34	0xbd9ec3f3	-0.07752218
35	0xbda58636	-0.08082239
36	0x3e840b6a	0.25789958
37	0xbf192ac6	-0.5983089
38	0x3f151ae5	0.5824416
39	0x3effe2ae	0.4997763
40	0x3e1ae7d9	0.15127505
41	0xbe754e64	-0.23955685
42	0xbce1de24	-0.027571745
43	0x3c1f5690	0.009725228
44	0x3e242f30	0.16033626
45	0xbcd41eba	-0.025893558
46	0xbc2a5fe5	-0.01039884
47	0x3e4c31e6	0.1994091
48	0xbd6db017	-0.05802926
49	0xbeb23654	-0.34807074
50	0x3e97c75d	0.2964429
51	0xbfe6eb73	-1.8040603
52	0x3d04073f	0.032233473
53	0xbdcef06f	-0.10104453
54	0x3ea83920	0.32856083
55	0xbe835f41	-0.2565861
56	0xbd71c4b3	-0.059025478
57	0x3e3d14b4	0.18464929
58	0xbe0fd260	-0.14045095
59	0xbc4ccdaa	-0.012500206
60	0x3ebf7e85	0.37401214
61	0xbd3b2fa1	-0.04569972
62	0xbd8a7392	-0.067603245
63	0xbed70ba5	-0.42001072
64	0xbdfa2074	-0.12213221
65	0xbf2040b1	-0.6259871
66	0x3e952781	0.29131702
67	0x3cf511cf	0.029915718
68	0xbe04aef5	-0.12957366
69	0x3f810fd1	1.0082952
70	0xbcfe4bf4	-0.031042077
71	0x3de2deaa	0.11077626
72	0xbe9a485d	-0.30133334
73	0x3da04060	0.078247786
74	0xbe16c8c9	-0.14725031
75	0xbe3399c4	-0.17539126
76	0x3d8c70d2	0.06857456
77	0x3e3ecd05	0.18632896
78	0x3df6b195	0.1204559
79	0xbe98eef9	-0.29869822
80	0x3e42297e	0.1896114
81	0x3e18f67b	0.14937775
82	0x3f5d02f0	0.8633261
83	0xbeffa769	-0.4993241
84	0xbf1b64d2	-0.60700715
85	0x3d693737	0.056937423
86	0x3dfebfa3	0.124388956
87	0xbe85d01a	-0.2613533
88	0xbe04ee87	-0.12981616
89	0xbe4fade0	-0.20281172
90	0xbe40fa6f	-0.18845533
91	0x3e1f35ba	0.15547839
92	0x3e2c9dab	0.1685702
93	0x3e552039	0.20813073
94	0x3d6cd1ac	0.057817146
95	0xbd3fe284	-0.04684688
96	0xbecb7584	-0.39738095
97	0xbe049f57	-0.12951408
98	0xbe59d94f	-0.21274303
99	0x3d98e3fc	0.074653596
100	0x3e5edcfe	0.2176399
101	0x3e24ba85	0.16086777
102	0xbe05d5f3	-0.13069896
103	0xbe42950f	-0.19002174
104	0x3f009fa7	0.5024361
105	0xbecefa37	-0.40425274
106	0xbced5ce2	-0.028974954
107	0xbef4295e	-0.4768781
108	0xbeed4cc8	-0.46347642
109	0xbd42aff5	-0.047531087
110	0x3e8e8918	0.2783897
111	0x3e53ec41	0.20695592
112	0xbe227310	-0.15864205
113	0x3e923884	0.28558743
114	0xbd0e5ec7	-0.034758355
115	0xbfa3281c	-1.2746615
116	0xbf5967ed	-0.84924203
117	0x3de43c3b	0.111443006
118	0x3efd07a9	0.49419907
119	0x3e438063	0.19091944
120	0xbe52a351	-0.20570113
121	0x3d78ecf0	0.060772836
122	0x3e6c5130	0.23077846
123	0x3d60aad0	0.0548504
124	0x3e907898	0.28217006
125	0xbd1a5e49	-0.037687574
126	0x3ef00804	0.46881115
127	0xbe7cdaf3	-0.24692897
128	0x3e2a5814	0.16635162
129	0xbe8c47ee	-0.27398628
130	0x3d841c4e	0.06450711
131	0xbeab7634	-0.3348862
132	0x3e1ced3a	0.1532487
133	0x3f11afb7	0.56908745
134	0xbeae5b8a	-0.34054214
135	0xbf49afc2	-0.7878381
136	0x3c838081	0.016052486
137	0x3c99bdae	0.018767204
138	0x3df1926a	0.117955044
139	0xbe7ccb41	-0.2468691
140	0x3e89848e	0.26858944
141	0xbf778b0e	-0.96696556
142	0xbe35efeb	-0.17767303
143	0x3e6df5bd	0.23238273
144	0x3e82fc8e	0.2558331
145	0x3e4f9bd4	0.20274287
146	0x3d2e1e55	0.042509396
147	0x3d2d9203	0.042375576
148	0x3f40f685	0.7537616
149	0x3f22816d	0.6347874
150	0x3e4060d4	0.18786937
151	0x3effc6f1	0.49956468
152	0xbd01c517	-0.0316821
153	0xbf6a6798	-0.9156432
154	0xbea22889	-0.3167155
155	0xbe6618d2	-0.22470406
156	0x3d99240e	0.0747758
157	0xbda654d5	-0.08121649
158	0xbe3f025e	-0.18653247
159	0x3ecebd25	0.4037868
160	0xbd3f51be	-0.046708815
161	0xbd189c68	-0.037258536
162	0xbf02af15	-0.51048404
163	0x3d07cb34	0.033152774
164	0x3e85badc	0.26119125
165	0xbed7d7d7	-0.4215686
166	0x3e8b19d7	0.27168152
167	0xbe44ec65	-0.19230802
168	0x3ee539d1	0.44770673
169	0x3f0f5767	0.5599274
170	0xbef2601d	-0.47338954
171	0xbea5efc9	-0.32409504
172	0xbd6287b7	-0.05530521
173	0x3eb5e793	0.3552824
174	0xbe3eb3c8	-0.18623269
175	0xbe55021e	-0.20801589
176	0xbd7863c9	-0.060642038
177	0xbcc681bc	-0.024231784
178	0xbe1110c3	-0.1416655
179	0xbd7ae4fa	-0.061253525
180	0x3e83f199	0.25770262
181	0xbf285106	-0.6574863
182	0x3ec6792c	0.38764322
183	0x3ea81df4	0.32835352
184	0xbfbadc83	-1.4598545
185	0xb9e33739	-0.00043337958
186	0xbd4714f9	-0.048603985
187	0x3e2c51be	0.16828057
188	0xbd015be8	-0.03158179
189	0x3d154932	0.036446758
190	0x3d5545bd	0.05206846
191	0x3e0c6ce0	0.13713408
192	0x3e133b74	0.14378148
193	0x3da52329	0.08063347
194	0x3e12ec6a	0.14347997
195	0xbe03359e	-0.12813422
196	0x3de1fc84	0.11034492
197	0x3f448633	0.7676727
198	0x3e343d6e	0.17601559
199	0x3e4102da	0.18848744
200	0xbf0b40f6	-0.54396
201	0xbdaa3f7e	-0.083128914
202	0x3f2c2ba8	0.67254114
203	0xbf09166a	-0.53549826
204	0xbe0a9ce7	-0.13536416
205	0xbd543cec	-0.051815912
206	0x3d7efca2	0.06225265
207	0xbe47358c	-0.1945402
208	0x3d331eb9	0.04373047
209	0x3d81850c	0.06324205
210	0xbd1cbf43	-0.03826834
211	0xbe7e4acd	-0.24833222
212	0xbe4ca252	-0.19983795
213	0x3f2d160a	0.67611754
214	0x3e96a55a	0.29423028
215	0x3e7bd123	0.24591498
216	0xbec329d2	-0.38117844
217	0x3ed13da9	0.40867355
218	0xbe559978	-0.20859325
219	0x3cdbecbe	0.026846286
220	0x3e0ebb7c	0.13938707
221	0xbb47268d	-0.0030387968
222	0xbd468ad2	-0.048472233
223	0x3e4a74c2	0.19771102
224	0x3e80c46a	0.25149852
225	0x3de72216	0.11285798
226	0xbe8e99d9	-0.2785175
227	0x3bbab5e0	0.0056979507
228	0xbeb547ec	-0.35406435
229	0xbe29fdd1	-0.1660073
230	0x3f9ce711	1.2258016
231	0x3c1ea25f	0.009682267
232	0xbef39e08	-0.47581506
233	0x3e886e04	0.26646435
234	0x3eaf1860	0.34198284
235	0x3e47bf2b	0.19506519
236	0xbed0ab31	-0.4075561
237	0xbd9e8983	-0.07741072
238	0x3b741c65	0.003724837
239	0x3e4a313f	0.19745348
240	0x3f28069e	0.656351
241	0xbd22f0cf	-0.039780434
242	0xbdcc58bc	-0.09977862
243	0x3e022cf7	0.12712465
244	0x3f06308b	0.5241782
245	0x3efea813	0.49737605
246	0x3dc82da0	0.09774327
247	0x3f65ccf2	0.89765847
248	0xbf0fe739	-0.5621219
249	0x3eb7d44a	0.3590415
250	0xbee7bcf2	-0.4526134
251	0x3e5e2fd4	0.21697932
252	0x3d0a4f61	0.033767108
253	0x3def0dc1	0.11672545
254	0x3e53cacb	0.20682828
255	0x3e5da5a8	0.21645224

hidden1s.0.bias f4 [100]
0	0xbf26eeea	-0.65208304
1	0xbe63b003	-0.22235112
2	0xbe3dfa77	-0.18552576
3	0xbe8e951f	-0.27848145
4	0xbf04ff10	-0.51951694
5	0xbe3d5651	-0.18489958
6	0xbe807633	-0.2509018
7	0xbdb6b359	-0.089209266
8	0xbdaff680	-0.08591938
9	0xbf3b9863	-0.732794
10	0xbeb085ea	-0.34477168
11	0x3e3a1a1e	0.18174025
12	0xbe5b8908	-0.21438992
13	0xbebda7d4	-0.37042105
14	0xbe663b53	-0.22483568
15	0xbdfaba3d	-0.122425534
16	0xbe8e0530	-0.27738333
17	0xbe207fab	-0.15673701
18	0xbf25287f	-0.6451492
19	0xbe8c9244	-0.27455342
20	0xbf1d1f26	-0.61375654
21	0xbed50876	-0.41608018
22	0xbf0c79dc	-0.5487344
23	0xbd626397	-0.055270758
24	0xbceefcec	-0.029173337
25	0xbe843c1f	-0.2582712
26	0xbe05dc1f	-0.13072251
27	0xbe4821ae	-0.19544098
28	0xbee3043c	-0.44339168
29	0xbe890465	-0.26761165
30	0xbecb1c94	-0.3967024
31	0xbee2b003	-0.4427491
32	0xbe9a589e	-0.30145735
33	0xbf127591	-0.5721064
34	0x3d59c26f	0.053163942
35	0xbe8b67f1	-0.27227738
36	0xbebf497b	-0.3736075
37	0xbf276b48	-0.65398073
38	0x3da21f6c	0.079161495
39	0xbe221c94	-0.15831214
40	0xbf437859	-0.7635551
41	0xbebd17f6	-0.36932343
42	0xbe25da33	-0.16196518
43	0xbe8495d9	-0.25895575
44	0xbf01f754	-0.5076802
45	0xbccd18b3	-0.025036192
46	0xbe855c60	-0.2604704
47	0xbe6e0da8	-0.23247397
48	0x3df6e8a1	0.12056089
49	0xbd7ab4a9	-0.061207447
50	0xbe87daa9	-0.26534012
51	0xbea474e5	-0.32120433
52	0xbe059127	-0.13043652
53	0x3dd98889	0.10621745
54	0xbee2f0a0	-0.44324207
55	0xbe6d80d4	-0.23193675
56	0xbe46300f	-0.1935427
57	0xbf1aff05	-0.6054538
58	0xbe8b2ece	-0.27184147
59	0xbf2cbfea	-0.6748034
60	0xbe5e9fe9	-0.21740688
61	0xbc89f36f	-0.016839711
62	0xbed31544	-0.41227162
63	0xbeabbf64	-0.33544457
64	0xbf0c3462	-0.5476743
65	0xbf207965	-0.62685233
66	0xbf5e1106	-0.86744726
67	0xbeda0c21	-0.4258738
68	0xbe3debdd	-0.18547006
69	0xbe378838	-0.17923057
70	0xbe77b11e	-0.24188659
71	0xbeb6b6f1	-0.35686448
72	0x3dc75c42	0.09734394
73	0xbe960fa4	-0.29308808
74	0xbed48995	-0.41511217
75	0x3b5c1035	0.0033578996
76	0x3db0d2e0	0.08633971
77	0xbe8e219c	-0.27760017
78	0xbe60eeb6	-0.21966061
79	0xbf232a4f	-0.6373643
80	0xbea98721	-0.33110908
81	0xbe3afaae	-0.18259689
82	0xbea5fa70	-0.3241763
83	0xbf5ac8f1	-0.8546286
84	0xbe59e64d	-0.21279259
85	0xbf1fc979	-0.624168
86	0x3db9da68	0.09074861
87	0xbf07f9f6	-0.53115785
88	0xbf4b2823	-0.7935812
89	0xbedba7b1	-0.42901376
90	0xbee122bc	-0.43971813
91	0x3e28bd19	0.16478385
92	0xbe8abd5a	-0.2709759
93	0xbe781b0f	-0.24229072
94	0xbc687b1f	-0.014189511
95	0x3e31aba8	0.17350638
96	0xbed1c3ec	-0.4096979
97	0xbf077d58	-0.52925634
98	0xbf1e12ed	-0.6174763
99	0xbef4a2f6	-0.4778058

hidden1.0.weight f4 [300, 104]
0	0xbece2388	-0.40261483
1	0xbe44e616	-0.19228396
2	0xbf32a0ba	-0.697765
3	0xbe27f2d2	-0.16401222
4	0xbea8ad36	-0.3294465
5	0xbeba9831	-0.36444238
6	0x3db92893	0.09040942
7	0xbec38f06	-0.38195056
8	0xbe6673ba	-0.22505084
9	0xbeea603a	-0.4577654
10	0xbec6569a	-0.38737947
11	0xbf0ff7aa	-0.5623728
12	0x3cd6eb03	0.02623511
13	0x3d0567f7	0.03256985
14	0xbea66c83	-0.32504663
15	0xbe29a157	-0.16565453
16	0xbf270f1f	-0.6525745
17	0xbf075d94	-0.52877164
18	0xbdb997f1	-0.09062184
19	0xbf0ff6b4	-0.56235814
20	0x3d9a8868	0.07545549
21	0xbe3eff29	-0.18652023
22	0xbe48ebfd	-0.19621272
23	0x3d564d9f	0.05232012
24	0x3d9b0bc5	0.07570604
25	0x3e2c27bf	0.16812037
26	0xbe0764cf	-0.13222049
27	0xbe241a05	-0.1602555
28	0x3cf42a93	0.029805457
29	0x3cd96ea3	0.026542014
30	0x3daf23ab	0.08551725
31	0xbe84b672	-0.25920445
32	0xbe3528e2	-0.17691377
33	0x3e8f5699	0.27995756
34	0xbe8db641	-0.2767811
35	0xbe83395b	-0.25629696
36	0xbe21deea	-0.15807691
37	0x3ea1ffdf	0.31640527
38	0xbed2a662	-0.41142565
39	0xbe398f04	-0.18120962
40	0xbda84ffe	-0.08218382
41	0xbe58935b	-0.21149962
42	0xbf3f3d9a	-0.7470337
43	0xbf3028c9	-0.68812233
44	0xbef2d808	-0.47430444
45	0x3ec8db73	0.39229926
46	0xbf9506f9	-1.1642753
47	0xbdc2d254	-0.09512773
48	0xbdc3c450	-0.09558928
49	0x3df4a645	0.11945776
50	0xbe438262	-0.19092706
51	0xbe2d2a11	-0.16910578
52	0x3c2540b3	0.010086226
53	0xbe465833	-0.19369583
54	0xbea9d687	-0.33171484
55	0x3dae4adb	0.08510371
56	0xbec7af93	-0.3900114
57	0xbe8dcffe	-0.27697748
58	0x3e734b14	0.23759109
59	0x3c9c9408	0.019113556
60	0xbf7efe05	-0.99606353
61	0xbf42615b	-0.759298
62	0xbd399add	-0.045313705
63	0x3ea4ae9e	0.32164472
64	0xbdb31e7e	-0.0874605
65	0xbee91087	-0.45520422
66	0x3eacfb6d	0.33785573
67	0x3cc2e40b	0.02379038
68	0xbe8064ae	-0.25076813
69	0xbdbd8b6c	-0.09255108
70	0x3d99f2a4	0.07516983
71	0xbd082c34	-0.03324528
72	0xbe161e12	-0.14659908
73	0xbf61cf76	-0.88207185
74	0xbe26a0b8	-0.16272247
75	0xbd379716	-0.04482182
76	0xbd6a0f9f	-0.057143804
77	0xbf18b33e	-0.596485
78	0xbe4402a2	-0.1914163
79	0xbe2b6903	-0.16739278
80	0xbeb77360	-0.35830212
81	0x3db176ed	0.086652614
82	0xbed5188c	-0.4162029
83	0x39c51774	0.00037592242
84	0xbee4d395	-0.44692674
85	0x3cf7d199	0.030251311
86	0x3d7b5487	0.06135991
87	0xbb94331d	-0.0045226947
88	0xbe2cefce	-0.16888353
89	0x3d274866	0.04084053
90	0xbd7badbd	-0.061444987
91	0xbef5e88a	-0.48028976
92	0x3f22d8d3	0.636121
93	0xbf6ecc92	-0.932809
94	0xbd1bf1a7	-0.038072255
95	0xbf0d455e	-0.5518397
96	0xbe2418d2	-0.16025093
97	0xbf348b35	-0.70524913
98	0x3e7b643d	0.24549957
99	0xbda355f4	-0.07975379
100	0x3eec88e2	0.46198183
101	0xbee4a2dc	-0.44655502
102	0x3e9aacfe	0.30210108
103	0x3d8a70c5	0.0675979
104	0xbd313a89	-0.043268714
105	0xbdaa5f02	-0.083189026
106	0x3e8cef4f	0.27526328
107	0xbe1e6d41	-0.15471365
108	0xbec94025	-0.3930675
109	0x3e9213db	0.28530774
110	0xbf4678dc	-0.77528167
111	0xbdbfd745	-0.09367231
112	0xbeaa0c5d	-0.33212557
113	0x3df6ccd4	0.120507866
114	0xbf2dca45	-0.67886764
115	0xbeb82ed0	-0.35973215
116	0xbdec02f5	-0.115240015
117	0xbe216fc2	-0.15765288
118	0xbea9075f	-0.33013436
119	0x3f21ef56	0.6325582
120	0xbdd70f18	-0.10500926
121	0x3e13906e	0.14410564
122	0xbe8008f5	-0.25006834
123	0x3e419c99	0.18907394
124	0x3ccf0fe3	0.02527613
125	0xbe044465	-0.12916715
126	0xbee03038	-0.43786788
127	0xbe9494b9	-0.29019716
128	0xbe8e5b85	-0.278042
129	0x3d6185e9	0.055059347
130	0x3d85d0dc	0.065339774
131	0x3e8d6785	0.27618042
132	0x3ea8cb18	0.32967448
133	0xbf106368	-0.5640168
134	0x3e2d703b	0.16937344
135	0xbd56e417	-0.052463617
136	0xbed60424	-0.41800034
137	0xbf1cd493	-0.6126186
138	0x3b46bfd2	0.0030326736
139	0xbea084fc	-0.3135146
140	0x3e92dac4	0.2868253
141	0xbde1e3b0	-0.11029756
142	0xbd7fcab1	-0.06244916
143	0xbc629938	-0.0138304755
144	0x3d05d180	0.032670498
145	0x3e16e7ba	0.14736834
146	0xbd060ca0	-0.032726884
147	0xbf0ddfcf	-0.5541963
148	0x3ea11be3	0.31466588
149	0x3d657a98	0.056025118
150	0x3ef3eab5	0.47640005
151	0x3d8b07b2	0.06788577
152	0x3ba2e90d	0.0049716295
153	0x3d90fd70	0.07079589
154	0xbe85170c	-0.25994146
155	0xbe077794	-0.13229209
156	0xbe5e6931	-0.21719815
157	0xbc8e91bb	-0.017403474
158	0xbe1e99cf	-0.15488361
159	0x3db8e9c8	0.09028965
160	0xbe2a0473	-0.1660326
161	0x3e835113	0.25647792
162	0xbe0dcddc	-0.1384806
163	0x3ebe20fe	0.37134546
164	0x3f14bcaf	0.5810041
165	0x3d54ba8a	0.05193571
166	0x3ee0d833	0.43914947
167	0x3e7d666f	0.24746107
168	0x3db0a86b	0.08625873
169	0xbcbfd32c	-0.023416124
170	0xbec9317e	-0.39295572
171	0xbee45c55	-0.44601694
172	0x3e8c25de	0.2737264
173	0xbd873910	-0.06602681
174	0xbea2a747	-0.31768247
175	0xbe761c10	-0.24034142
176	0x3dc0cc75	0.09413997
177	0x3e3e4314	0.18580276
178	0x3de806cd	0.11329422
179	0xbd58fef3	-0.052977514
180	0xbf0c30f0	-0.5476217
181	0x3dea7891	0.114487775
182	0x3d425d68	0.04745236
183	0x3f21312c	0.62965655
184	0x3c77cab0	0.015124008
185	0x3de40f9a	0.11135788
186	0xbee306ef	-0.44341227
187	0x3dd2f783	0.10301115
188	0x3e031bec	0.1280362
189	0xbbeb947a	-0.0071893306
190	0xbf09703d	-0.5368689
191	0xbf5caeba	-0.8620411
192	0x3ec611aa	0.38685352
193	0xbd90ecbc	-0.070764035
194	0x3e2518b5	0.16122706
195	0x3df5b3bf	0.119971745
196	0xbbc00180	-0.005859554
197	0xbe5366c9	-0.20644678
198	0xbef3a78b	-0.47588763
199	0xbdb8b4a3	-0.09018829
200	0xbe7987a9	-0.24368156
201	0xbe854467	-0.2602875
202	0xbe0cecf1	-0.13762261
203	0x3e998e94	0.2999159
204	0x3c8a8c6f	0.016912667
205	0x3e0a2051	0.1348889
206	0x3ded736b	0.1159428
207	0xbe37538f	-0.17902969
208	0xbeca505c	-0.39514434
209	0x3dc5ff7c	0.096678704
210	0xbf523a9b	-0.82120675
211	0xbf24dbbb	-0.6439778
212	0xbddd7519	-0.1081335
213	0x3dc066d6	0.093946144
214	0xbf19a3af	-0.60015386
215	0xbe6d11d4	-0.23151332
216	0xbebb0481	-0.36526874
217	0x3e827001	0.25476077
218	0xbf6d41d8	-0.92678595
219	0x3cc43969	0.023953157
220	0xbf8860a3	-1.0654491
221	0xbe48460f	-0.19557975
222	0x3d9eb3bf	0.077491276
223	0x3caa1696	0.020762723
224	0xbe91f627	-0.28508112
225	0x3e5d21a0	0.21594858
226	0xbe9f43fd	-0.31106558
227	0x3cd1f603	0.025630003
228	0x3e0c387d	0.13693424
229	0xbebdc833	-0.37066802
230	0xbe36cb53	-0.17851
231	0x3dfc34dc	0.123147696
232	0xbf4cfe65	-0.80075675
233	0xbe73537b	-0.23762314
234	0xbf1ad76e	-0.6048497
235	0x3e759879	0.23983945
236	0x3e8197b9	0.25311068
237	0x3d7ef901	0.062249187
238	0xbe4bbd27	-0.19896375
239	0x3d8cdae9	0.06877691
240	0xbf1b3f02	-0.6064302
241	0xbdb9f6a1	-0.09080244
242	0xbe6ce4e5	-0.23134191
243	0x3e469d52	0.1939595
244	0x3dca96ac	0.0989202
245	0x3ea24e6e	0.31700462
246	0xbe7ad0a2	-0.2449365
247	0x3d7b29b9	0.061319087
248	0x3ec7ac18	0.38998485
249	0xbdc35a79	-0.09538741
250	0xbdb4599b	-0.088061534
251	0x3df8b5e1	0.12144066
252	0x3e0e9d54	0.13927203
253	0x3d5b0d05	0.053479213
254	0x3e955c1e	0.29171842
255	0xbe95b36c	-0.2923845

hidden1.0.bias f4 [300]
0	0xbed607db	-0.41802868
1	0xbedf74df	-0.43643853
2	0xbf7d4c13	-0.98944205
3	0xbe2e4e66	-0.17022094
4	0xbf144a9e	-0.57926357
5	0x3f2558a6	0.6458839
6	0xbd927976	-0.07152073
7	0xbe63cea6	-0.22246799
8	0xbe902b31	-0.28157952
9	0x3e0b2d71	0.13591553
10	0x3f0fe746	0.5621227
11	0xbf0a5e60	-0.54050255
12	0xbe4a14ae	-0.19734451
13	0xbea9b4b7	-0.33145687
14	0x3f0d67eb	0.5523669
15	0xbef3bcba	-0.47604924
16	0x3d1336e3	0.035941016
17	0xbe251098	-0.16119611
18	0xbe268902	-0.16263202
19	0xbe595a93	-0.21225958
20	0xbf6465c2	-0.8921777
21	0xbe9dad3f	-0.3079624
22	0xbf11841d	-0.56842214
23	0xbf17bfd7	-0.592771
24	0xbe4ed10d	-0.20196934
25	0xbe68fdba	-0.22753039
26	0xbee8a1d3	-0.45435962
27	0xbe21babb	-0.15793888
28	0x3ea6b6a5	0.32561222
29	0xbed5b354	-0.4173838
30	0xbe7b77a9	-0.24557365
31	0xbf11d103	-0.5695955
32	0xbe839ce1	-0.25705627
33	0x3e06106a	0.13092199
34	0xbdf50630	-0.11964071
35	0xbd044712	-0.03229434
36	0x3e4ae3f2	0.19813517
37	0xbd1c6379	-0.038180802
38	0x3e354ac5	0.17704304
39	0xbef32a7a	-0.47493345
40	0xbe8ff8d5	-0.2811953
41	0xbebae9df	-0.36506554
42	0xbe51de4e	-0.20494959
43	0xbeaf4612	-0.34233147
44	0xbf453689	-0.7703634
45	0xbe74e251	-0.23914458
46	0x3e2c1eb1	0.16808583
47	0xbdd6845e	-0.10474466
48	0xbe39639d	-0.18104406
49	0x3ec0232a	0.37526828
50	0xbf34f678	-0.7068858
51	0xbdcf9b12	-0.10136999
52	0xbe1fba16	-0.1559833
53	0xbe04bb32	-0.12962034
54	0xbe2b1a78	-0.16709316
55	0xbe0168c5	-0.12637623
56	0xbea7b915	-0.32758394
57	0xbe4f1284	-0.20221907
58	0x3d41bb5e	0.047297828
59	0x3cd5d1a0	0.026100934
60	0x3c9fac26	0.019491266
61	0xbe56b78c	-0.20968455
62	0xbe5e3f69	-0.21703877
63	0xbe4210f1	-0.18951775
64	0xbec4d87b	-0.38446411
65	0x3f1f3872	0.62195504
66	0xbe812f80	-0.25231552
67	0x3e4c7113	0.1996501
68	0xbdcf226c	-0.10113987
69	0xbf2eb821	-0.6824971
70	0x3f079463	0.52960795
71	0xbc90982d	-0.017650688
72	0x3cc46a47	0.023976458
73	0x3f760c53	0.96112555
74	0x3e0c31ca	0.13690868
75	0x3e73f9d0	0.23825765
76	0xbe3aa4e8	-0.18226969
77	0xbe325e9b	-0.17418902
78	0xbf3732b5	-0.7156175
79	0x3eb08312	0.34475
80	0x3efc9c04	0.4933778
81	0x3e368ac5	0.17826374
82	0xbe4a5c05	-0.19761665
83	0xbcbf3794	-0.023341931
84	0xbf1f9320	-0.6233387
85	0xbe98b265	-0.29823604
86	0xbdd3d3ec	-0.10343155
87	0xbe25c798	-0.1618942
88	0xbe9ef8ec	-0.31049287
89	0x3d0e1ddf	0.034696456
90	0xbe59f064	-0.21283108
91	0x3ea7d4ae	0.3277945
92	0x3d4f548e	0.050617747
93	0xbdb75315	-0.089513935
94	0x3eb5409b	0.35400853
95	0xbe79200f	-0.24328636
96	0xbeec3041	-0.46130565
97	0xbe46cb27	-0.19413434
98	0x3decc028	0.115600884
99	0xbeee34be	-0.46524614
100	0xb9abca3a	-0.00032766332
101	0xbe4a03f7	-0.19728075
102	0xbe1cc7b5	-0.15310557
103	0x3f14e1ec	0.5815723
104	0xbf1f56f7	-0.6224207
105	0x3de5c336	0.11218874
106	0xbd1cc903	-0.038277637
107	0xbec2ef0c	-0.38073003
108	0xbeebecbc	-0.46079051
109	0xbf24fcc7	-0.6444821
110	0xbf04446b	-0.516669
111	0xbec172bd	-0.3778285
112	0xbd832998	-0.06404418
113	0xbf2d7352	-0.6775409
114	0xbf10c04c	-0.5654342
115	0xbd35cccd	-0.044384766
116	0x3e33b65b	0.17550032
117	0x3f2b4119	0.66896206
118	0xbd74f447	-0.059803274
119	0xbe7af099	-0.24505843
120	0xbee566a1	-0.44804862
121	0x3f46e90f	0.7769937
122	0xbe191572	-0.14949587
123	0xbec627a0	-0.38702106
124	0xbf3db24f	-0.741002
125	0xbd6f5a76	-0.05843588
126	0x3d4289d0	0.04749471
127	0x3ebd424f	0.36964652
128	0xbdc338a6	-0.09532289
129	0xbe8ca80c	-0.2747196
130	0xbd902495	-0.070382275
131	0x3ec41610	0.38298082
132	0xbe9b7660	-0.3036375
133	0xbf1526c3	-0.5826227
134	0xbe3ea122	-0.18616155
135	0xbe51c83a	-0.20486537
136	0xbee98f6c	-0.45617235
137	0xbef91cc0	-0.48654747
138	0x3d4bd3c6	0.04976251
139	0xbd0a0cb8	-0.033703536
140	0x3ea1eb2e	0.3162474
141	0xbe69e146	-0.22839841
142	0xbeba9191	-0.36439183
143	0xbf41917e	-0.7561263
144	0x3f13cab3	0.5773117
145	0xbd75fcda	-0.06005559
146	0xbe6a596e	-0.22885677
147	0xbeb98a89	-0.36238506
148	0x3f3f35bf	0.74691385
149	0xbe915933	-0.28388366
150	0xbcbf9e20	-0.02339083
151	0xbf136401	-0.5757447
152	0xbd5a4c98	-0.0532957
153	0xbdfe125c	-0.124058455
154	0xbee62d03	-0.44956216
155	0xbeb142ed	-0.34621373
156	0xbe0108bc	-0.12600988
157	0xbef45057	-0.47717544
158	0xbe6adcdf	-0.22935818
159	0x3ea06856	0.31329602
160	0xbecde87c	-0.40216434
161	0xbead28a2	-0.33820063
162	0xbe82d4fe	-0.25553125
163	0xbe0ff9a5	-0.14060076
164	0xbeca4d99	-0.39512327
165	0x3e03698f	0.12833236
166	0xbf1a06e2	-0.6016675
167	0x3ed6ca06	0.41951007
168	0xbccb1de4	-0.024794526
169	0xbe5e425f	-0.21705006
170	0xbeb2fdaa	-0.34959155
171	0xbea49169	-0.3214219
172	0x3f76b6e0	0.96372795
173	0xbf24d3eb	-0.6438586
174	0xbd5d8809	-0.05408481
175	0xbeb394f8	-0.35074592
176	0xbdbf8394	-0.093512684
177	0xbe559bf1	-0.20860268
178	0x3d6f8804	0.058479324
179	0xbea13552	-0.31485993
180	0xbefb3dd6	-0.49070615
181	0xbe2c9456	-0.1685346
182	0xbef1a97c	-0.4719962
183	0xbf160545	-0.5860179
184	0xbe57571d	-0.21029325
185	0x3e1a13db	0.15046637
186	0x3be0368f	0.0068424414
187	0xbd9153a5	-0.07096032
188	0xbeb9cebf	-0.36290547
189	0x3f201321	0.6252919
190	0xbea4a120	-0.3215418
191	0xbeab75af	-0.33488223
192	0xbee2feb7	-0.44334957
193	0x3e723f53	0.23656969
194	0xbe858e4e	-0.26085132
195	0xbec0fea6	-0.3769428
196	0x3e87514d	0.26429215
197	0xbe453f5b	-0.1926245
198	0xbe2f1612	-0.17098263
199	0xbf2089ab	-0.62710065
200	0x3be6c423	0.0070424243
201	0xbf18d5bf	-0.5970115
202	0x3d844a32	0.06459464
203	0xbe7a45e4	-0.24440724
204	0x3d709c58	0.05874285
205	0xbe9bce88	-0.30431008
206	0x3e2316c7	0.15926658
207	0xbd659938	-0.056054324
208	0xbed4b5f0	-0.41545057
209	0xbe4b1a9f	-0.19834374
210	0xbec4d5c4	-0.3844434
211	0xbef265d4	-0.47343314
212	0xbefb868e	-0.49126095
213	0xbeb386dc	-0.35063827
214	0xbe9f2e8b	-0.31090197
215	0xbea57a7a	-0.32320005
216	0xbe816403	-0.25271615
217	0xbf3072d2	-0.689252
218	0x3dbc51dd	0.09195302
219	0xbec4e08d	-0.3845257
220	0xbe3bf53d	-0.1835527
221	0xbe9686cb	-0.29399714
222	0xbdf9836b	-0.12183269
223	0x3eeb1304	0.45912945
224	0xbe8b79c8	-0.2724135
225	0xbd8e405a	-0.06945868
226	0xbed9aba7	-0.42513773
227	0xbe8fec60	-0.28110027
228	0xbea98892	-0.33112007
229	0x3eaed289	0.34145
230	0xbe332539	-0.17494668
231	0xbe96e80d	-0.29473916
232	0x3dbef98a	0.093249395
233	0x3ec501c5	0.38477913
234	0xbe91d8ba	-0.28485662
235	0xbec8f064	-0.39245903
236	0xbea7d9ad	-0.3278326
237	0xbcc225df	-0.023699699
238	0xbec5ac31	-0.38607934
239	0x3e67d82a	0.22641054
240	0xbe7cce51	-0.24688078
241	0xbd238339	-0.039920066
242	0xbe39fe61	-0.18163444
243	0xbe9acd2d	-0.30234662
244	0xbeb18d94	-0.34678328
245	0xbd0b979d	-0.034080137
246	0x3f103142	0.5632516
247	0xbec876ad	-0.39153042
248	0xbee27a45	-0.4423391
249	0xbedd8fc0	-0.43273735
250	0xbe96dfbf	-0.2946758
251	0xbe9a3606	-0.30119342
252	0x3e6fcbe7	0.23417626
253	0xbeafb395	-0.34316698
254	0xbec04e30	-0.37559652
255	0xbe37757b	-0.17915909

hidden2.0.weight f4 [100, 300]
0	0x3caf9627	0.021433903
1	0x3c8df48a	0.01732852
2	0xbd880981	-0.06642438
3	0xbd8eda59	-0.0697524
4	0x3bdcb5fd	0.006735562
5	0xbac558be	-0.0015056354
6	0xbda82493	-0.08210101
7	0xbda10e36	-0.07864039
8	0xbe1f7ba3	-0.15574507
9	0xbcb457c0	-0.022014499
10	0xbd8eceec	-0.06973061
11	0xbdac4a41	-0.084126
12	0xbd73c487	-0.059513595
13	0xbccda598	-0.025103375
14	0x3cf0664d	0.029345656
15	0xbd9ab0d4	-0.075532585
16	0xbd87f15a	-0.06637831
17	0xbd04d918	-0.0324336
18	0xbd4455d1	-0.047933403
19	0x3d46d89a	0.04854641
20	0xbdeab746	-0.11460738
21	0xbdb5961a	-0.0886652
22	0xbd499173	-0.049210977
23	0xbd746c98	-0.059673876
24	0xbcd9039b	-0.026490977
25	0x3c082380	0.008309245
26	0x3cae62cb	0.021287343
27	0xbd13770e	-0.03600221
28	0xbe00d261	-0.12580253
29	0xbc20503b	-0.009784753
30	0xbd04a4bd	-0.03238367
31	0xbd227b46	-0.039668344
32	0xbd9faa04	-0.077961
33	0x3a964de8	0.001146731
34	0xbd192347	-0.03738716
35	0xbda1e08e	-0.079041585
36	0x3d09859f	0.033574697
37	0x3d68b667	0.056814577
38	0xbd334680	-0.043768406
39	0xbd5ab883	-0.05339862
40	0xbcf84297	-0.03030519
41	0x37ad8185	2.068352e-05
42	0x3c81840c	0.015810035
43	0xbd211644	-0.039327875
44	0xbac4bbd0	-0.0015009586
45	0xbd60dfd9	-0.054900978
46	0xbbb2c616	-0.0054557426
47	0x3d5342a8	0.05157724
48	0xbb146f40	-0.0022649318
49	0xbb522209	-0.0032063744
50	0x3d05d01c	0.03266917
51	0xbd937d78	-0.07201666
52	0xbddedce0	-0.10881972
53	0x3d072b65	0.03300037
54	0xbcf8c1e1	-0.030365886
55	0x3d058f26	0.03260722
56	0xbd79db05	-0.06099989
57	0xbca99766	-0.020702075
58	0xbcf40641	-0.029788138
59	0x3d5d423b	0.05401824
60	0xbd2648ac	-0.04059665
61	0xbce3ae35	-0.02779303
62	0xbbca764b	-0.0061786524
63	0xbd72b405	-0.05925371
64	0xbdb4c432	-0.08826484
65	0xbd489574	-0.048970655
66	0xbd9c2c0f	-0.07625591
67	0xbdf5376f	-0.11973464
68	0xba9ffb05	-0.0012205547
69	0xbd9b81d8	-0.07593125
70	0xbd25dace	-0.04049187
71	0xbe0291cd	-0.12750931
72	0xbb9c99ab	-0.004779061
73	0xbdf1eb73	-0.118124865
74	0xbcde4877	-0.027134163
75	0xbd7491c4	-0.059709325
76	0xbdd05703	-0.10172846
77	0xbd2ae38d	-0.041720916
78	0xbdbe2d77	-0.092860155
79	0x3c164b46	0.00917322
80	0xbd8150ec	-0.06314263
81	0xbd1b1484	-0.037861362
82	0xbbb02280	-0.0053752065
83	0xbd32e866	-0.043678664
84	0xbdda955f	-0.106730215
85	0x3cd50d43	0.0260073
86	0xbb06e125	-0.0020580974
87	0xbdc7743c	-0.09738967
88	0xbd52dbed	-0.05147927
89	0xbcbce236	-0.023057085
90	0xbcb66075	-0.022262791
91	0x3d07cf45	0.033156652
92	0xb98a857b	-0.00026420862
93	0xbe1659fc	-0.14682764
94	0xbcc2319d	-0.023705298
95	0xbe01a8c7	-0.1266204
96	0x3d137f6b	0.036010187
97	0xbcb0553c	-0.021525018
98	0xbd29ae74	-0.041426137
99	0xbd3c17c6	-0.04592111
100	0xbdb559fe	-0.08855055
101	0xbc38a4f4	-0.011269797
102	0xbce48e12	-0.027899776
103	0xbd202b94	-0.03910406
104	0x3cbf5432	0.023355577
105	0xbdbc731d	-0.092016436
106	0xbd0e10fd	-0.03468417
107	0xbd42e919	-0.04758558
108	0xbcb60a91	-0.022221835
109	0xbdd4cc43	-0.10390522
110	0xbbd93bb2	-0.0066294307
111	0xbd906f83	-0.07052519
112	0xbd966f39	-0.07345433
113	0xbe045ae7	-0.12925301
114	0xbd3e5f9e	-0.046477906
115	0xbdbd7c98	-0.0925228
116	0xbd8d37fa	-0.06895442
117	0xbce20673	-0.027590966
118	0xbdf9e29b	-0.12201425
119	0xbd9435df	-0.072368376
120	0xbd9a75c4	-0.07541993
121	0x3c9f637a	0.019456614
122	0x3b44c433	0.003002417
123	0xbd462fe7	-0.048385527
124	0xbc8160f6	-0.015793305
125	0xbd388ccc	-0.04505615
126	0xbd26dbed	-0.04073708
127	0xbc9a5b3d	-0.018842334
128	0xbc0f5f12	-0.008750694
129	0xbc1c0287	-0.009522087
130	0xbe2b21c8	-0.16712105
131	0xbca916af	-0.0206407
132	0xbd8c0310	-0.068365216
133	0xbd3940db	-0.045227867
134	0xbdb7ffa2	-0.08984305
135	0xbd259d92	-0.040433474
136	0xbd83f04f	-0.064423196
137	0xbd5829c8	-0.05277422
138	0x3d1c7895	0.038200933
139	0xbd57d024	-0.052688733
140	0xbc6abd1d	-0.014327315
141	0xbbedcccf	-0.007257081
142	0xbdccc09d	-0.099976756
143	0xbd60d590	-0.05489117
144	0x3abc2078	0.0014352938
145	0xbd412e7e	-0.04716348
146	0xbcf7b254	-0.0302364
147	0x3c36d0b8	0.011158161
148	0xbda33cce	-0.07970582
149	0x3cf874d6	0.03032915
150	0xbdb2604c	-0.087097734
151	0xbdc2537f	-0.09488582
152	0xbd6931a3	-0.056932103
153	0xbbea9f0f	-0.0071600745
154	0xbd9c0db4	-0.07619801
155	0x3b144d29	0.0022629
156	0xbd7516bb	-0.05983613
157	0xbda1a75c	-0.078932494
158	0xbd720341	-0.059085134
159	0xbd239401	-0.03993607
160	0xbdb3c762	-0.08778264
161	0xbdfb9d6e	-0.12285887
162	0xbd160342	-0.0366242
163	0xbd61c16d	-0.055116106
164	0xbd843884	-0.06456092
165	0xbd856264	-0.06512907
166	0x3b6a9eb2	0.0035800156
167	0x3c938d11	0.018011602
168	0xbd17a635	-0.03702374
169	0xbd5ed404	-0.054401413
170	0x3bebf903	0.0072013154
171	0x3bf431b1	0.0074522127
172	0xbd7fbb89	-0.062434707
173	0xbd9a2184	-0.07525924
174	0x3bc349e0	0.0059597343
175	0xbd364dec	-0.044507906
176	0x3ca45910	0.020062
177	0x3bd2670c	0.0064209756
178	0x3d28c960	0.04120767
179	0xbd975064	-0.0738838
180	0xbe0c95dc	-0.13729042
181	0xbca6915e	-0.020332988
182	0xbd321758	-0.043479294
183	0xbc97aa19	-0.018513726
184	0xbda3e552	-0.08002724
185	0xbd025938	-0.031823367
186	0x3c8c6f63	0.017142957
187	0xbd628a8c	-0.05530791
188	0x3d5af6fc	0.0534582
189	0xbddcf400	-0.10788727
190	0xbd9b388e	-0.07579146
191	0xbcc2eedf	-0.023795543
192	0xbc7a5958	-0.01528009
193	0xbd8e4660	-0.06947017
194	0x3d03279a	0.03202019
195	0xbda2d313	-0.079504155
196	0xbd9f224a	-0.07770212
197	0xbced0249	-0.028931754
198	0x3c7a0675	0.015260329
199	0xbca30462	-0.01989955
200	0x3ccfd73e	0.02537119
201	0xbdbc7a69	-0.092030354
202	0xbcb1ace2	-0.021688882
203	0xbda14f2b	-0.07876428
204	0xbb94c5ed	-0.004540196
205	0xbb8002c5	-0.00390658
206	0xbe0baf43	-0.13641076
207	0xbd17a49b	-0.037022214
208	0xbc971c54	-0.018446125
209	0x3d0e9799	0.034812544
210	0xbbc09d2f	-0.0058781127
211	0xbd58ee23	-0.05296148
212	0xbda5f91a	-0.08104153
213	0xbbf1228b	-0.007358854
214	0xbc8ffd76	-0.017576914
215	0xbcc95c17	-0.024580045
216	0xbdb74b61	-0.08949924
217	0xbceddac2	-0.029034976
218	0xbde53e73	-0.11193552
219	0xbdb53d96	-0.08849637
220	0xbe12b70d	-0.14327641
221	0xbbc10664	-0.0058906544
222	0x3d32f0dc	0.043686733
223	0xbcfcbea0	-0.030852616
224	0xbd4184cf	-0.047245797
225	0x3b2adeef	0.002607282
226	0x3b8db466	0.0043244837
227	0x3d9eca6c	0.07753453
228	0xbca33685	-0.019923458
229	0xbd531cee	-0.05154126
230	0xbd1ca16e	-0.03823989
231	0xbd9b0e09	-0.07571036
232	0xbd6d49c7	-0.057931688
233	0x3d866250	0.0656172
234	0xbe14df0b	-0.14538209
235	0x3bcfa1f2	0.006336444
236	0xbb06d3b5	-0.0020572965
237	0xbdf7591f	-0.120775454
238	0x3d28a8d5	0.041176636
239	0xbdab52dc	-0.083654135
240	0xbd5513f0	-0.052020967
241	0xbd016b16	-0.031596266
242	0xbcc2fdee	-0.023802724
243	0xbd483170	-0.048875272
244	0xbe0661ca	-0.13123241
245	0xbdc5e261	-0.09662319
246	0xbd764f21	-0.060134057
247	0xbd54b157	-0.051926937
248	0xbd913501	-0.07090188
249	0x3c95fceb	0.018309077
250	0xbdd4f048	-0.103973925
251	0x3d8f857b	0.07007881
252	0x3b7917bd	0.0038008534
253	0xbda9d90a	-0.0829335
254	0xbd62dc05	-0.05538561
255	0x3cf8cd56	0.03037135

hidden2.0.bias f4 [100]
0	0xbe96d230	-0.29457235
1	0xbf080fe8	-0.5314927
2	0xbc689414	-0.014195461
3	0xbe813c7c	-0.25241458
4	0xbee9ee8d	-0.45689812
5	0xbe827579	-0.2548025
6	0xbe72f508	-0.23726285
7	0x3de8156d	0.11332212
8	0x3f7261f0	0.9468069
9	0x3d21b55e	0.039479606
10	0xbea44246	-0.32081813
11	0xbe5bb675	-0.2145632
12	0xbe361709	-0.17782225
13	0xbe76bcdd	-0.24095483
14	0xbe3cab25	-0.18424661
15	0xbe9cb22f	-0.30604693
16	0xbe88c76b	-0.26714644
17	0xbe162f13	-0.14666395
18	0xbba5126f	-0.005037598
19	0xbf27a075	-0.65479213
20	0x3eb69288	0.3565867
21	0xbe91a0ce	-0.28442997
22	0xbe420575	-0.18947394
23	0xbf12006d	-0.570319
24	0xbe2b9166	-0.16754684
25	0xbe5c3bfc	-0.21507257
26	0xbe6228d8	-0.22085893
27	0xbe747582	-0.2387295
28	0xbf07c71b	-0.53038186
29	0xbf473ebd	-0.77830106
30	0xbe5e9dd7	-0.21739899
31	0xbec989b8	-0.39362884
32	0x3f88a6b0	1.0675869
33	0x3f919896	1.137469
34	0x3d868013	0.06567397
35	0xbe640093	-0.22265844
36	0xbeb94628	-0.36186337
37	0x3ed15e00	0.4089203
38	0x400a1250	2.1573677
39	0xbe1b8bc7	-0.1519004
40	0xbe7b44fa	-0.24538031
41	0xbdf6f8d8	-0.12059182
42	0x3f16f0c2	0.5896112
43	0xbe089039	-0.13336267
44	0x3f8910bd	1.0708233
45	0xbec5e015	-0.38647524
46	0x3fdb69a3	1.7141613
47	0x3ef80991	0.484448
48	0x3c45d293	0.012074131
49	0xbe377a1e	-0.17917678
50	0xbe789528	-0.24275649
51	0xbe2cd21d	-0.16877027
52	0xbee847d5	-0.45367303
53	0xbe1594d6	-0.14607558
54	0xbec0d691	-0.376637
55	0x3fce59ae	1.6121118
56	0xbf7a05ca	-0.97665083
57	0xbcc0e928	-0.023548678
58	0x3d37a9c0	0.04483962
59	0x3f47f92d	0.7811459
60	0x3f9cde97	1.2255429
61	0xbeae976a	-0.34099895
62	0xbeb62934	-0.3557831
63	0xbe143ba8	-0.14475882
64	0x3fb1cfae	1.3891504
65	0xbe1e4d99	-0.15459289
66	0xbd555814	-0.05208595
67	0xbf075fbe	-0.52880466
68	0xbe0ecfd4	-0.13946468
69	0x3f99fd85	1.2030493
70	0xbec9ed31	-0.39438775
71	0xbe0e0c9f	-0.13872002
72	0x3ff87797	1.9411496
73	0x3e48320c	0.19550341
74	0x3ded3cb0	0.11583841
75	0x3f130014	0.57421994
76	0x3f608c85	0.87714416
77	0x3fbd9ecc	1.4814086
78	0xbe118e3b	-0.14214413
79	0xbed1351f	-0.4086084
80	0xbe4b27df	-0.19839428
81	0xbea284d9	-0.3174198
82	0xbe485ade	-0.19565913
83	0xbe758ba9	-0.23979057
84	0xbec7cb6d	-0.3902239
85	0xbe8b0ade	-0.27156729
86	0xbea96ded	-0.3309168
87	0xbd670173	-0.056397866
88	0xbeb7fe36	-0.35936135
89	0xbe60ebd6	-0.21964964
90	0xbe88485d	-0.2661771
91	0xbe081e64	-0.13292843
92	0x3f90c430	1.1309872
93	0xbe6fc3b0	-0.23414493
94	0x3e0517c6	0.1299735
95	0x3f955ee2	1.1669581
96	0xbe904646	-0.28178614
97	0xbf34f127	-0.7068047
98	0xbea1e8a3	-0.316228
99	0xbe6abb85	-0.22923096

output.0.weight f4 [1, 100]
0	0x3c377270	0.011196718
1	0xbc8c8a82	-0.01715589
2	0x3ce1152f	0.027475921
3	0xbd63be05	-0.05560114
4	0xbcf1d26b	-0.02951928
5	0x3ca14bed	0.019689525
6	0x3c6f412c	0.0146029405
7	0xbd1b4a84	-0.03791286
8	0x3cf033c5	0.02932156
9	0xbd688a55	-0.05677255
10	0xb93d3ab3	-0.00018046312
11	0xbc6f4ac1	-0.014605225
12	0xbd3708f6	-0.04468628
13	0xbcc273e3	-0.0237369
14	0xbd814664	-0.06312254
15	0xbbfb523c	-0.007669715
16	0x3c1b186d	0.009466273
17	0x3c400c26	0.011721646
18	0xbdf2805f	-0.11840891
19	0xbd54c46a	-0.051945128
20	0x3d289063	0.041153323
21	0xbd373689	-0.044729743
22	0xbce318c8	-0.027721778
23	0xbd135c7c	-0.03597687
24	0xbb5f2a61	-0.003405236
25	0xbc3c6a65	-0.011499976
26	0x3b83217f	0.004001796
27	0xbb453337	-0.003009034
28	0xbd2e7ad3	-0.042597603
29	0xbd688328	-0.056765705
30	0x3bf79d93	0.007556626
31	0xbd6961e6	-0.05697813
32	0x3cedd62f	0.029032795
33	0x3d142b8d	0.036174346
34	0xbbcfbad5	-0.006339411
35	0xbb5bd15d	-0.0033541538
36	0xbd87d509	-0.0663243
37	0x3c5865d0	0.013207868
38	0x3e3bcd79	0.183401
39	0x3bf2d30c	0.0074104127
40	0xbc022ce2	-0.007945271
41	0xbc78d37f	-0.015187143
42	0x3cda9f86	0.026687395
43	0x3cd10eb2	0.025519703
44	0x3cb9fcfc	0.02270364
45	0x3c9aa630	0.018878073
46	0x3de3c529	0.1112159
47	0x3cfd022a	0.030884821
48	0xbd2aa2dc	-0.04165922
49	0xbcba867b	-0.022769203
50	0xbbe46c81	-0.0069709425
51	0x3b9b1de0	0.004733786
52	0xbc0d0fa0	-0.008609682
53	0xbc0c1179	-0.008549088
54	0xbc99d230	-0.018776983
55	0x3d85696a	0.06514247
56	0xbd5a975b	-0.053367
57	0xbd4bf5df	-0.049795028
58	0xbd0ee9a9	-0.034890804
59	0x3d345684	0.04402782
60	0x3cee0061	0.029052915
61	0x3cb8c5b0	0.022555202
62	0x3c6080d3	0.013702589
63	0xbc3108e6	-0.010805344
64	0x3d2a62c6	0.041598104
65	0x3c78f46e	0.015194995
66	0x3a9f8e98	0.0012173234
67	0xbd0c1dbc	-0.034208044
68	0x3d586f4b	0.052840512
69	0x3d2edef7	0.042693105
70	0x3cc72948	0.024311677
71	0xbdc19ff0	-0.09454334
72	0x3e1792bd	0.1480207
73	0xbd3e7c6c	-0.046505377
74	0xbc25c21f	-0.010117083
75	0x3d197427	0.037464287
76	0x3caffd55	0.021483103
77	0x3cfe7a11	0.031064065
78	0xbd3004ac	-0.042973205
79	0x3c48e6aa	0.012262026
80	0xbc6c67bf	-0.014429032
81	0xbc32ad6c	-0.010905605
82	0x3cb0fbfe	0.021604534
83	0x3bd16a3e	0.006390839
84	0x3a817a67	0.0009878398
85	0xbc62c97e	-0.013841985
86	0xbd2871e5	-0.041124243
87	0x3cbe42db	0.023225239
88	0xbd2a4a48	-0.041574746
89	0x3aeae137	0.0017919902
90	0xbcb96424	-0.022630759
91	0xbcbd2401	-0.023088457
92	0x3cc5b321	0.024133267
93	0x3b222334	0.002474022
94	0xbd6f3308	-0.058398277
95	0x3d0093eb	0.031391066
96	0x3cf8a953	0.030354178
97	0xbc813d82	-0.0157764
98	0xbd8f0cb1	-0.069848426
99	0x3ccc9668	0.024974063
